marllib/patch/aircombat/JSBSim/model/baseline_model.pt (torch, 558234 bytes, 22 tensors)

base.mlp.fc.0.weight f4 [128, 12]
-0.542391 -0.28502485 -0.08254527 -0.23701347 -0.018854916 -0.2287732 0.39408147 0.16646615
0.06591854 0.45700338 0.029383816 0.18103744 -0.59032214 -0.0219826 -0.38170552 -0.03363346
-0.31879625 0.2569076 0.40231887 0.21098714 0.08279604 -0.048234135 0.09454084 -0.28384006
-0.12923065 -0.10998356 -0.15979761 0.047276665 -0.24270469 -0.19820891 -0.08935642 0.16017318
-0.24826437 -0.29058352 -0.16908868 -0.18367638 -0.07974044 -0.23072867 -0.14649642 -0.04219542
0.19408515 -0.14869986 -0.00024131579 -0.2054271 0.091253355 -0.036886748 -0.23620951 -0.12277688
-0.3638892 0.42040464 0.18538049 -0.12084418 -0.15151022 0.25501397 0.3254284 0.07157552
-0.103856824 0.21704732 0.019475518 -0.12844387 0.22713117 0.09086428 -0.29723057 -0.12136552
-0.2756987 -0.23054005 -0.10700763 -0.18953557 0.18451835 -0.16737376 0.15548606 0.27077013
-0.19473611 -0.20368633 0.20438594 0.050052963 0.12060058 0.19464335 0.12331379 0.1474653
-0.29429552 -0.076852255 -0.40431464 -0.029054755 0.3008846 -0.32033497 -0.0076923734 -0.18524589
-0.24069278 -0.24455705 -0.21464935 0.1484664 -0.20077285 -0.27783167 0.08490457 0.13917872
-0.3403151 0.47597483 0.0648844 -0.08247444 0.18014242 0.15688024 0.01913067 -0.05403673
0.10489878 -0.24772501 -0.09574397 -0.060095266 0.34397203 -0.2644118 0.4613323 0.1211691
-0.14275628 -0.23857188 -0.29884225 -0.27351782 0.21881798 0.27397004 -0.08425081 0.24667355
0.22526969 -0.47914776 -0.7530537 -0.0735536 -0.32660055 -0.081930496 0.046232156 0.042085916
-0.014834227 0.12809943 0.29194704 0.03690694 0.44700548 -0.13298687 -0.44124985 0.044200342
0.21116708 0.1499807 -0.41555658 -0.052608248 -0.29282755 -0.0040874635 0.10485645 0.07924753
-0.40892577 -0.114203885 0.29158643 -0.267009 0.17455414 0.28484395 -0.10922925 0.28588003
0.0434169 0.27807155 0.17108434 -0.25099984 0.48262137 0.09742971 -0.1845718 -0.09539024
-0.3446123 0.02792671 0.03774888 0.14781864 -0.24530987 -0.40772504 0.24529688 -0.061628558
0.049290977 -0.32741374 -0.63760525 0.093391135 -0.3958359 0.15996386 -0.10774989 0.18943684
-0.09034392 0.24646877 0.15926684 -0.08286676 0.6852331 -0.030812401 0.37140596 0.25467908
0.085956015 0.0378056 0.050321043 0.1779334 -0.273339 0.005421022 0.43481797 -0.21084763
-0.13077095 0.014946912 0.39519918 0.10477617 -0.08673151 0.014349922 -0.25357577 0.21986067
-0.2392655 0.14035062 0.12467999 0.20302026 0.3307469 -0.05660903 0.29217625 -0.15136568
0.23487082 -0.12004715 -0.26998827 -0.17303197 0.31501958 0.30880037 -0.15442844 -0.18843825
-0.023494003 0.1136474 0.7588165 0.18059094 -0.23745976 -0.25726175 0.024353798 0.19462076
0.18720233 -0.004445327 -0.12694202 0.10389727 0.19427782 -0.31218484 -0.17987646 0.13832007
0.3194486 0.18294276 0.17452155 0.2069463 -0.3636717 0.25608212 0.0736845 0.11606609
0.32601368 0.26637632 -0.52127045 -0.030661594 0.19510908 0.1716076 -0.047285594 0.1807247
-0.10052456 -0.100001425 0.37982762 0.18177903 0.34819856 -0.20667568 -0.03460525 -0.14903474
00000000: 23da 0abf c7ee 91be 7f0d a9bd a9b3 72be
00000010: a075 9abc 8643 6abe 0cc5 c93e 1a76 2a3e
00000020: 4d00 873d 59fc e93e 54b6 f03c e161 393e
00000030: 5a1f 17bf db14 b4bc e86e c3be 3dc3 09bd
00000040: 4339 a3be 6589 833e bdfc cd3e 030d 583e
00000050: f890 a93d 2891 45bd a19e c13d 7c53 91be
00000060: 0a55 04be 103f e1bd fca1 23be 2da5 413d
00000070: 9487 78be 47f7 4abe 8000 b7bd 7004 243e
00000080: 0439 7ebe 5dc7 94be 9525 2dbe a915 3cbe
00000090: f54e a3bd 2344 6cbe 2803 16be 1bd5 2cbd
000000a0: 42be 463e c744 18be b709 7db9 7b5b 52be
000000b0: 0ae3 ba3d 8f16 17bd e8e0 71be 7272 fbbd
000000c0: af4f babe 473f d73e 62d4 3d3e 277d f7bd
000000d0: 7f25 1bbe 3191 823e 8d9e a63e 3096 923d
000000e0: e3b2 d4bd a741 5e3e 1f8b 9f3c ca86 03be
000000f0: 1395 683e 0d17 ba3d 9b2e 98be 7c8e f8bd
00000100: 6128 8dbe b112 6cbe d126 dbbd 9d15 42be
00000110: 61f2 3c3e 0764 2bbe bd37 1f3e 62a2 8a3e
00000120: e768 47be 2693 50be 8c4a 513e 5604 4d3d
00000130: 70fd f63d 9650 473e f18b fc3d 2501 173e
00000140: e7ad 96be b764 9dbd 5402 cfbe 3d04 eebc
00000150: 8c0d 9a3e f202 a4be 4e10 fcbb 19b1 3dbe
00000160: 2b78 76be 2a6d 7abe 0acd 5bbe 9307 183e
00000170: 6697 4dbe f43f 8ebe 72e2 ad3d de84 0e3e
00000180: c83d aebe f9b2 f33e 1de2 843d 5ce8 a8bd
00000190: 4177 383e 37a5 203e ecb7 9c3c 9e55 5dbd
000001a0: 2cd5 d63d a0ab 7dbe 6a15 c4bd 7426 76bd
000001b0: 1a1d b03e fc60 87be bf33 ec3e 8127 f83d
000001c0: b42e 12be 304c 74be da01 99be 870a 8cbe
000001d0: d211 603e cd45 8c3e b08b acbd fe97 7c3e
000001e0: 19ad 663e db52 f5be 21c8 40bf 45a3 96bd
000001f0: 3038 a7be 2dcb a7bd ee5d 3d3d 4862 2c3d
00000200: 420b 73bc 7f2c 033e 157a 953e bb2b 173d
00000210: e7dd e43e b62d 08be 80eb e1be 6b0b 353d
00000220: 2f3c 583e 8a94 193e d5c3 d4be bf7b 57bd
00000230: 7eed 95be 21f0 85bb fabe d63d 874c a23d
00000240: b85e d1be bae3 e9bd d14a 953e 67b5 88be
00000250: 52be 323e 11d7 913e 96b3 dfbd de5e 923e
00000260: ebd5 313d 655f 8e3e bc30 2f3e 0d83 80be
00000270: 261a f73e 3a89 c73d 6400 3dbe f55b c3bd
00000280: 0671 b0be 8ec6 e43c 929e 1a3d c55d 173e
00000290: 8332 7bbe 56c1 d0be 1b2f 7b3e 3a6e 7cbd
000002a0: 56e5 493d c6a2 a7be 193a 23bf da43 bf3d
000002b0: 01ab cabe 91cd 233e f9ab dcbd bbfb 413e
000002c0: 3c06 b9bd 4f62 7c3e d916 233e 0cb6 a9bd
000002d0: 706b 2f3f 4a6a fcbc ec28 be3e 4c65 823e
000002e0: b509 b03d 0bda 1a3d 701d 4e3d 2c34 363e
000002f0: 17f3 8bbe d4a2 b13b 76a0 de3e 71e8 57be
00000300: d2e8 05be e5e3 743c 8c57 ca3e e394 d63d
00000310: 4aa0 b1bd ef1b 6b3c afd4 81be 2823 613e
00000320: 0402 75be 13b8 0f3e 3958 ff3d 8be4 4f3e
00000330: a857 a93e dfde 67bd 2098 953e 9bff 1abe
00000340: fa81 703e 48db f5bd e73b 8abe 4b2f 31be
00000350: 3f4a a13e 151b 9e3e 7d22 1ebe f5f5 40be
00000360: 7f76 c0bc f8bf e83d cc41 423f d5ec 383e
00000370: a728 73be d0b7 83be 9e81 c73c aa4a 473e
00000380: f8b1 3f3e 1baa 91bb 17fd 01be 18c8 d43d
00000390: c4f0 463e b1d6 9fbe 8931 38be c7a3 0d3e
000003a0: c48e a33e 5955 3b3e c7b5 323e bbe9 533e
000003b0: 2d33 babe 321d 833e e6e7 963d 0fb4 ed3d
000003c0: 44eb a63e 7a62 883e fb71 05bf 062e fbbc
000003d0: adca 473e e7b9 2f3e 8aae 41bd e50f 393e
000003e0: d2df cdbd 8ccd ccbd c478 c23e 4824 3a3e
000003f0: 1547 b23e caa2 53be 3cbe 0dbd 909c 18be

base.mlp.fc.0.bias f4 [128]
0.3027618 -0.12731227 -0.26162362 -0.14999872 0.15850453 0.16563937 0.18632542 -0.079031184
0.07322663 0.24712105 0.26685888 0.19521868 0.017709898 0.26898652 -0.20692651 -0.18637171
0.059261743 0.095849864 -0.20774093 0.071235664 -0.20227543 -0.1452884 0.19380228 0.27340907
-0.3250607 0.105301425 -0.05758535 -0.27046278 -0.23383507 0.22723705 -0.09555695 0.1709924
-0.1208749 0.13177986 -0.18990152 0.19374444 0.05369972 0.28505895 0.02649709 -0.13286158
0.01567286 -0.15468317 0.30977634 -0.20077261 0.13015442 0.116267964 -0.0030813746 -0.12999383
0.11578842 -0.06643142 0.17348501 0.18056476 -0.28707463 -0.034981683 -0.0018576508 0.100568086
-0.09345236 -0.1827885 0.14601068 -0.14696431 -0.2527855 0.040015537 0.09976189 0.0036881512
0.057332728 0.14798553 0.13430814 0.2571402 0.23362905 -0.14193955 -0.104250334 -0.06874887
-0.21892224 0.114834756 -0.041573916 -0.05591546 0.15153816 -0.14810786 -0.21609515 0.07216123
-0.018151222 -0.09243549 0.09498435 -0.071852885 -0.21511701 0.17218645 0.2873405 0.1901543
0.09094067 0.21637452 0.0800409 0.086991265 -0.16534084 0.07682974 0.062487766 -0.018243305
-0.26395538 0.23788975 0.11699294 -0.115754925 0.25855252 -0.0163219 -0.076978296 -0.008229115
-0.26770163 0.0014925516 -0.02912472 0.07490973 -0.12143684 -0.2623011 0.0028039273 0.16079873
0.127028 0.18210053 0.19190751 -0.07481977 0.10644339 0.14132471 -0.18505962 0.205358
-0.2398487 -0.16762474 0.1300077 -0.15683216 0.2159639 0.27882507 0.22237119 -0.13942581
00000000: 9803 9b3e 265e 02be 88f3 85be 4499 19be
00000010: 034f 223e 5e9d 293e 17cc 3e3e 1adb a1bd
00000020: d8f7 953d 4d0d 7d3e baa1 883e 68e7 473e
00000030: 5914 913c 9ab8 893e 8be4 53be 3ad8 3ebe
00000040: 71bc 723d ef4c c43d 0aba 54be 01e4 913d
00000050: 4a21 4fbe 7bc6 14be 1b74 463e 46fc 8b3e
00000060: 5b6e a6be 46a8 d73d 9ede 6bbd 197a 8abe
00000070: 7672 6fbe d4b0 683e 5db3 c3bd a218 2f3e
00000080: 428d f7bd 4df1 063e 8b75 42be f164 463e
00000090: 3df4 5b3d 3ff3 913e 6d10 d93c de0c 08be
000000a0: 5f64 803c 4465 1ebe 019b 9e3e 5697 4dbe
000000b0: 3347 053e e61d ee3d e3f0 49bb 1a1d 05be
000000c0: 7b22 ed3d 320d 88bd 0ea6 313e f8e5 383e
000000d0: 72fb 92be f448 0fbd 6b7c f3ba a4f6 cd3d
000000e0: f363 bfbd e92c 3bbe d383 153e d07d 16be
000000f0: 1a6d 81be 55e7 233d f64f cc3d e9b4 713b
00000100: b9d5 6a3d 8589 173e 1388 093e e1a7 833e
00000110: 743c 6f3e 9a58 11be 3381 d5bd 35cc 8cbd
00000120: 272d 60be 7c2e eb3d 6949 2abd 9c07 65bd
00000130: d22c 1b3e 96a9 17be 0c48 5dbe 44c9 933d
00000140: dfb1 94bc d14e bdbd 2887 c23d 9b27 93bd
00000150: a247 5cbe a551 303e 4b1e 933e cfb7 423e
00000160: 1a3f ba3d 4891 5d3e 7cec a33d 7a28 b23d
00000170: 1c4f 29be e958 9d3d 2cf3 7f3d fc72 95bc
00000180: 2925 87be 5f99 733e ff99 ef3d eb10 edbd
00000190: ff60 843e 81b5 85bc cca6 9dbd 69d3 06bc
000001a0: 3010 89be b9a1 c33a f796 eebc 466a 993d
000001b0: e1b3 f8bd 544c 86be 18c2 373b 6ca8 243e
000001c0: a113 023e 9078 3a3e 6783 443e 1c3b 99bd
000001d0: fefe d93d 6db7 103e 4580 3dbe 5e49 523e
000001e0: e69a 75be d2a5 2bbe bd20 053e 9c98 20be
000001f0: a425 5d3e 29c2 8e3e 46b5 633e a4c5 0ebe

base.mlp.fc.2.weight f4 [128]
1.0224323 1.1361773 0.9283878 0.97042745 1.0898225 0.98222077 0.9725908 0.9495042
0.99588317 1.0278329 1.1006944 1.1118133 0.9702212 1.049439 1.1095506 1.051611
0.95323014 0.9542219 1.1282655 0.95078975 1.1003826 0.9299152 1.0334792 1.053107
0.92731535 0.9536114 1.0393583 0.9544411 1.0046816 0.94920564 0.9291819 1.0826117
0.97714275 1.1126935 0.9748939 1.1493485 0.95386004 1.0642827 1.0037842 0.95221996
1.1226645 0.96595997 0.94616514 0.9769842 0.9235057 0.98546296 1.057692 0.9107326
1.0566065 0.94639945 1.005248 1.0357289 0.9969531 0.9795683 1.0540076 0.9351433
1.0755758 0.99147946 0.9025305 0.981827 0.9640739 1.1129237 0.98658526 1.008271
0.9663091 0.9748011 0.946469 1.1944801 0.93149745 1.0874856 0.97446537 0.9428446
0.97937316 1.0500172 0.9815798 0.9749451 1.0172591 0.9777537 0.9448306 0.93209445
1.0121082 1.0304271 0.9478263 0.9455116 0.9509251 0.9757039 1.0896878 1.0060749
0.97454935 0.99507684 1.0378854 0.9935434 1.1515764 1.0601438 1.0574683 0.9670403
0.97624993 1.1750562 0.9844901 1.2229327 1.0369664 0.9432039 0.9715171 0.9660534
0.9552596 0.9627514 0.98612034 1.0495881 0.95870715 1.004038 0.96104294 0.9872681
0.97168285 0.9623867 0.9358276 0.9536785 0.99133676 0.9409518 0.9476051 0.968305
0.9682668 0.92348856 0.9394015 1.0732231 1.0765933 1.0585746 1.0421278 1.0325706
00000000: 10df 823f 426e 913f d3aa 6d3f ef6d 783f
00000010: 4e7f 8b3f d272 7b3f b6fb 783f b512 733f
00000020: 33f2 7e3f 0790 833f 8ee3 8c3f e64f 8e3f
00000030: 6b60 783f 0454 863f c105 8e3f 309b 863f
00000040: e406 743f e347 743f 016b 903f f566 733f
00000050: 56d9 8c3f ec0e 6e3f 0c49 843f 36cc 863f
00000060: 8a64 6d3f e01f 743f b109 853f 4056 743f
00000070: 6899 803f 24ff 723f ddde 6d3f 0593 8a3f
00000080: 0726 7a3f be6c 8e3f a692 793f da1d 933f
00000090: 2c30 743f 6a3a 883f 007c 803f b0c4 733f
000000a0: 78b3 8f3f 2749 773f e137 723f a31b 7a3f
000000b0: df6a 6c3f 4d47 7c3f 7462 873f c625 693f
000000c0: e23e 873f 3c47 723f f7ab 803f c492 843f
000000d0: 5238 7f3f fdc4 7a3f b9e9 863f 8d65 6f3f
000000e0: 78ac 893f 99d1 7d3f 3d0c 673f 0459 7b3f
000000f0: 8ccd 763f 4974 8e3f da90 7c3f 060f 813f
00000100: 0860 773f 918c 793f cb4b 723f b9e4 983f
00000110: 9e76 6e3f ba32 8b3f 9076 793f 445e 713f
00000120: 33b8 7a3f f766 863f d048 7b3f 0196 793f
00000130: 8c35 823f 114e 7a3f 6be0 713f be9d 6e3f
00000140: c38c 813f 09e5 833f bfa4 723f 0c0d 723f
00000150: d46f 733f bbc7 793f e47a 8b3f 10c7 803f
00000160: 117c 793f 5bbd 7e3f 6ed9 843f dc58 7e3f
00000170: db66 933f cbb2 873f 1f5b 873f f48f 773f
00000180: 84eb 793f 3e68 963f 8b07 7c3f 0f89 9c3f
00000190: 51bb 843f d075 713f 58b5 783f 474f 773f
000001a0: e58b 743f e076 763f 6272 7c3f e758 863f
000001b0: d56d 753f 5184 803f e906 763f 9abd 7c3f
000001c0: 35c0 783f fa5e 763f 6692 6f3f 4624 743f
000001d0: 3fc8 7d3f 38e2 703f 3f96 723f d6e2 773f
000001e0: 55e0 773f bf69 6c3f 9e7c 703f 605f 893f
000001f0: cfcd 893f 5f7f 873f 7264 853f 462b 843f

base.mlp.fc.2.bias f4 [128]
0.008925039 -0.010972146 0.069430724 0.028252449 -0.0047585554 0.030992316 -0.037168138 0.06346938
0.040006924 -0.018735373 0.021061236 -0.009228423 0.009608509 0.006386723 0.01121633 0.00814349
-0.0453101 0.05215989 -0.011797009 -0.05632405 -0.0011613354 0.07732415 0.01813805 -0.0076340362
0.07309685 0.045890454 -0.03474774 0.04955534 0.019367948 0.049491353 0.08305447 -0.007896209
0.02344616 -0.009542294 -0.039962426 -0.0045823134 0.047453023 0.0053937966 0.037697278 0.050850205
-0.0023846412 0.02211479 0.058386795 0.056233786 -0.07119254 -0.037124414 0.014261071 0.088193625
0.0012820619 0.056965478 -0.01898483 -0.0011196779 -0.015499199 0.013004858 0.0071158884 0.06351868
0.013817062 -0.042708393 0.106231734 0.018229501 0.03632373 0.012318835 -0.027968567 0.018746786
0.04183086 0.021584446 0.04253748 -0.012740225 0.034143515 -0.00084870815 0.029821016 0.06787542
0.018876474 0.01982493 -0.0344743 -0.038745806 -0.0316519 0.034532417 0.05435093 0.064959854
0.019914698 -0.008434843 0.058724184 0.0637425 0.046886973 0.010568152 0.00029264457 -0.02559295
-0.041229665 -0.020720027 -0.021926437 0.041229002 -0.0006912483 -0.024963116 -0.013534252 0.033499412
-0.032335147 -0.002855174 0.015052551 0.004444937 -0.025094679 0.05645059 0.04226374 0.047070142
0.047953364 0.03957644 -0.039862175 -0.02998015 0.03973947 0.011245704 0.040866513 -0.024313588
-0.027821055 -0.04972953 0.048965756 -0.055562228 0.001846742 0.058757097 0.054627046 -0.03886614
0.03969172 0.06430628 0.07872418 0.0014724036 0.018581439 0.017349124 -0.019428987 0.0026468218
00000000: 543a 123c 84c4 33bc b231 8e3d ae71 e73c
00000010: a8ed 9bbb 99e3 fd3c 9e3d 18bd 3cfc 813d
00000020: 4dde 233d ed7a 99bc 9d88 ac3c d032 17bc
00000030: 026d 1d3c b747 d13b b3c4 373c 466c 053c
00000040: 1597 39bd 9ca5 553d 3e48 41bc 0cb4 66bd
00000050: f337 98ba 205c 9e3d 3f96 943c f026 fabb
00000060: cdb3 953d a1f7 3b3d a553 0ebd 8afa 4a3d
00000070: 88a9 9e3c 72b7 4a3d 7618 aa3d 1a5f 01bc
00000080: 2912 c03c 4857 1cbc a4af 23bd 3b27 96bb
00000090: 1a5e 423d 72be b03b 7668 1a3d 4e48 503d
000000a0: a447 1cbb 132a b53c fe26 6f3d 6655 663d
000000b0: 65cd 91bd c50f 18bd 44a7 693c dc9e b43d
000000c0: dc0a a83a a254 693d 1386 9bbc 28c2 92ba
000000d0: 5af0 7dbc 5412 553c 662c e93b 1516 823d
000000e0: f560 623c ffee 2ebd 0690 d93d 0956 953c
000000f0: 31c8 143d f0d4 493c 561e e5bc dc92 993c
00000100: d656 2b3d ddd1 b03c c83b 2e3d 60bc 50bc
00000110: 12da 0b3d d77b 5eba 344b f43c 4502 8b3d
00000120: d6a2 9a3c e467 a23c ec34 0dbd ecb3 1ebd
00000130: 6ca5 01bd dd71 0d3d 159f 5e3d ac09 853d
00000140: 2624 a33c 4c32 0abc c588 703d 6e8b 823d
00000150: 8e0c 403d 0b26 2d3c 176e 9939 4ea8 d1bc
00000160: 70e0 28bd 0cbd a9bc 129f b3bc bedf 283d
00000170: e334 35ba 737f ccbc c4be 5dbc ae36 093d
00000180: dc71 04bd df1d 3bbb fa9e 763c d6a6 913b
00000190: 5b93 cdbc bc38 673d be1c 2d3d 9fcc 403d
000001a0: bf6a 443d e81a 223d 8546 23bd ee98 f5bc
000001b0: dbc5 223d e73f 383c a563 273d 4a2d c7bc
000001c0: fbe8 e3bc 31b1 4bbd 5190 483d 3895 63bd
000001d0: 610e f23a 48ab 703d 9cc0 5f3d 1a32 1fbd
000001e0: c993 223d 03b3 833d 253a a13d abfd c03a
000001f0: 1a38 983c c01f 8e3c 8a29 9fbc 4d76 2d3b

base.mlp.fc.3.weight f4 [128, 128]
0.07707015 0.0630514 -0.014682717 -0.06048347 0.05336692 -0.01623149 0.073542416 -0.053342752
-0.0601481 -0.06269902 -0.16300401 -0.078932725 0.05371412 -0.054698143 -0.085328065 -0.056414403
-0.016630255 0.033155378 -0.039435145 -0.05321273 -0.0791006 -0.046999544 0.021647472 0.0008536993
-0.011644597 0.09650931 -0.026826669 0.09076049 -0.04212181 -0.045348532 0.06363593 0.1181759
-0.04349612 -0.060260095 0.047825366 -0.0025379707 -0.007966251 0.019567981 0.054675363 0.006601998
0.14303714 -0.02343021 0.01936202 -0.060656816 0.019409833 0.04722509 0.08322723 0.07046411
-0.010461986 -0.012325416 -0.05513812 0.028419398 -0.013640041 0.055462573 0.06709415 0.0068695503
-0.0029812586 0.05033868 0.10164837 -0.016687034 0.061161153 0.018787457 -0.04983419 0.06147139
-0.02735333 -0.033618838 -0.049795933 -0.003655908 -0.049058236 0.08382523 0.08643165 0.079124555
-0.054547705 -0.028241893 0.042752057 -0.05373134 -0.06858039 0.0031054309 0.09994937 -0.029095914
0.06944459 -0.04873472 0.017639648 0.053716782 0.04699784 -0.07009977 -0.028436529 0.044614322
-0.026575336 -0.042473394 0.112645276 0.085823454 -0.06604409 -0.06887748 0.02369529 0.04475275
-0.03666101 0.025281664 0.021152388 0.004546713 0.029356427 -0.018354943 0.062643394 -0.03879272
0.012170669 0.08429948 -0.047162853 -0.17294966 -0.015057352 -0.036702383 0.00939248 -0.080096096
-0.04780847 -0.011638111 0.011609808 0.09359916 -0.115649685 -0.037643924 -0.019653246 -0.110244185
-0.046009272 -0.0204563 0.0067989 0.08510986 -0.0893604 0.041937098 0.012268546 0.050300684
-0.024981441 0.022502627 0.023418805 0.034235694 0.007728521 0.14018238 -0.122926496 0.006799268
0.04975619 0.029165583 -0.014314835 -0.025521873 -0.06839988 0.001974575 -0.035666935 0.021588674
-0.046599388 0.07146478 0.097871095 -0.11136117 -0.09070899 0.029200926 -0.060608223 0.042354513
0.060244128 -0.03164469 -0.00881129 0.10122616 -0.033359505 0.063881926 0.056105018 0.1325342
0.069918565 -0.07635571 0.004588882 0.0777864 0.085893296 0.121337116 -0.067405686 0.021591075
-0.0928088 -0.026693838 0.070772946 0.11495545 -0.07758756 -0.052239258 -0.030345654 -0.07543249
-0.031287555 -0.0018460547 0.077255964 -0.0443234 0.060740355 -0.0073522036 -0.03679529 -0.03966799
0.06272842 5.5960627e-05 0.11432377 0.09792119 0.060446534 0.024440104 -0.02834936 0.059951644
0.09178002 -0.029443393 -0.026279958 0.05551702 -0.011926981 0.048625235 0.017940782 0.11771035
-0.039296374 0.040055312 -0.020032361 0.00781823 0.09176855 0.05517312 -0.015443155 -0.0006454099
0.043131784 -0.15441105 0.0066084214 0.05925593 0.033067968 -0.05314979 -0.042967904 -0.08060476
-0.05522738 -0.10923411 -0.072742045 -0.038773146 -0.00861048 -0.012726266 0.033919465 0.107329495
0.053968582 -0.111587 0.019022405 -0.0675312 -0.032219335 -0.012355308 0.07384316 -0.030836577
-0.05518358 -0.006205899 -0.045843963 -0.07240061 0.06193543 -0.030653298 -0.013203934 -0.08104414
-0.044872656 -0.0011907001 -0.03414305 -0.046290014 -0.011299681 0.10064192 0.10543216 -0.00064242096
0.02620911 -0.05464001 0.0779282 -0.01179371 -0.0044238633 0.101291955 -0.036535293 0.10581088
00000000: f4d6 9d3d 1821 813d c78f 70bc 84bd 77bd
00000010: 4697 5a3d e7f7 84bc 689d 963d ee7d 5abd
00000020: db5d 76bd 5868 80bd 86ea 26be 7ba7 a1bd
00000030: 5603 5c3d 290b 60bd 7bc0 aebd ca12 67bd
00000040: 2c3c 88bc efcd 073d bf86 21bd 97f5 59bd
00000050: 7fff a1bd 9882 40bd 0a56 b13c caca 5f3a
00000060: fbc8 3ebc aca6 c53d 9ac3 dbbc a3e0 b93d
00000070: eb87 2cbd 62bf 39bd 8e53 823d 3506 f23d
00000080: fd28 32bd 4ad3 76bd 88e4 433d 1554 26bb
00000090: e184 02bc 084d a03c 46f3 5f3d 9355 d83b
000000a0: 5478 123e b6f0 bfbc 199d 9e3c 4873 78bd
000000b0: 5f01 9f3c 196f 413d 0a73 aa3d 7d4f 903d
000000c0: c068 2bbc 8bf0 49bc 82d8 61bd cccf e83c
000000d0: 7b7a 5fbc b92c 633d a868 893d f719 e13b
000000e0: 3861 43bb ef2f 4e3d 052d d03d 3fb3 88bc
000000f0: 1e84 7a3d 27e8 993c f01e 4cbd 6dc9 7b3d
00000100: 1714 e0bc e8b3 09bd d2f6 4bbd f597 6fbb
00000110: 4af1 48bd 90ac ab3d 1403 b13d 0e0c a23d
00000120: 6a6d 5fbd 8b5b e7bc c81c 2f3d 6515 5cbd
00000130: e073 8cbd 7c84 4b3b 41b2 cc3d 8e5a eebc
00000140: f738 8e3d 0f9e 47bd 0681 903c 2106 5c3d
00000150: cf80 403d 7890 8fbd b9f3 e8bc 82bd 363d
00000160: 85b4 d9bc 95f8 2dbd 91b2 e63d 35c4 af3d
00000170: 2042 87bd a30f 8dbd a01c c23c a94e 373d
00000180: db29 16bd 7e1b cf3c c647 ad3c 98fc 943b
00000190: e47c f03c 1b5d 96bc 2e4b 803d 1de5 1ebd
000001a0: 7c67 473c 35a5 ac3d d62d 41bd b719 31be
000001b0: 1db3 76bc 3d55 16bd ebe2 193c 6c09 a4bd
000001c0: d0d2 43bd c7ad 3ebc 1037 3e3c ebb0 bf3d
000001d0: bed9 ecbd 8430 1abd d8ff a0bc b4c7 e1bd
000001e0: 3874 3cbd f893 a7bc 4fc9 de3b 144e ae3d
000001f0: 9602 b7bd 3cc6 2b3d 0302 493c 1708 4e3d
00000200: e1a5 ccbc 6e57 b83c cbd8 bf3c ba3a 0c3d
00000210: 883f fd3b f88b 0f3e e3c0 fbbd 65cc de3b
00000220: 26cd 4b3d a9ec ee3c c588 6abc 3f13 d1bc
00000230: 3c15 8cbd df67 013b 7e17 12bd bbda b03c
00000240: 00df 3ebd 205c 923d a470 c83d 5311 e4bd
00000250: a3c5 b9bd c836 ef3c 5440 78bd ed7b 2d3d
00000260: 8cc2 763d dd9d 01bd 3b5d 10bc a94f cf3d
00000270: faa3 08bd 87d4 823d 60ce 653d 0cb7 073e
00000280: 7731 8f3d 6260 9cbd 555e 963b 7a4e 9f3d
00000290: d3e8 af3d 987f f83d fe0b 8abd c4df b03c
000002a0: 8a12 bebd 09ad dabc 68f1 903d c36d eb3d
000002b0: 3ae6 9ebd d5f8 55bd 7397 f8bc 597c 9abd
000002c0: 6127 00bd 51f7 f1ba 6038 9e3d 748c 35bd
000002d0: e1ca 783d c1ea f0bb a8b6 16bd e77a 22bd
000002e0: c277 803d 44b7 6a38 9522 ea3d e88a c83d
000002f0: c996 773d 9d36 c83c eb3c e8bc db8f 753d
00000300: 2af7 bb3d 4533 f1bc 1149 d7bc d165 633d
00000310: 6269 43bc 412b 473d 8cf8 923c 2012 f13d
00000320: 3cf5 20bd 0a11 243d e81a a4bc 0918 003c
00000330: 26f1 bb3d 36fd 613d 4905 7dbc ba30 29ba
00000340: f4aa 303d ee1d 1ebe 758b d83b 59b6 723d
00000350: 4772 073d 98b3 59bd 1dff 2fbd 1c14 a5bd
00000360: 1b36 62bd 22b6 dfbd c8f9 94bd 97d0 1ebd
00000370: f912 0dbc d481 50bc 23ef 0a3d 91cf db3d
00000380: 290e 5d3d ba87 e4bd e0d4 9b3c cc4d 8abd
00000390: 6cf8 03bd eb6d 4abc 153b 973d fd9c fcbc
000003a0: 2d08 62bd db5a cbbb e1c6 3bbd c546 94bd
000003b0: 01b0 7d3d a01c fbbc 5055 58bc 78fa a5bd
000003c0: 64cc 37bd 4411 9cba 95d9 0bbd 999a 3dbd
000003d0: 4c22 39bc 5a1d ce3d d1ec d73d 2468 28ba
000003e0: 7db4 d63c 34ce 5fbd d298 9f3d 683a 41bc
000003f0: 0ef6 90bb 2872 cf3d 08a6 15bd 60b3 d83d

base.mlp.fc.3.bias f4 [128]
-0.015736558 -0.07213727 0.051946476 0.0582964 -0.016405003 0.027436987 0.06959172 -0.012393765
-0.031944536 -0.075985946 -0.06903312 -0.055297486 -0.078788325 0.015129691 0.044794608 0.045364156
-0.00676818 -0.0782324 0.033103917 0.060770836 -0.09983471 -0.002294927 0.009825919 0.014628609
-0.08575033 0.061305147 -0.059445664 -0.09306815 0.09142709 0.07973027 0.03601284 0.022559317
-0.064370014 -0.044263963 -0.031956576 -0.040850017 0.09303595 0.006785784 -0.0147875985 0.037093703
0.028646747 -0.04868095 -0.07846841 -0.0904354 0.043836426 0.009708188 0.0018988785 0.058140956
-0.024824468 0.0019707198 -0.065202005 0.0018346893 -0.109003045 0.022171695 -0.03457445 -0.06461444
0.010030248 0.057886224 -0.0535648 -0.039672762 -0.020752206 -0.041105203 -0.057078905 -0.03831894
0.064218625 0.019163333 -0.09116932 0.077715926 0.04770289 -0.058556627 0.064047076 -0.058917545
-0.06482688 -0.001696646 -0.07850169 0.0010991783 -0.07572314 -0.039559126 -0.06658685 -0.04219289
-0.052346505 -0.050130215 -0.09889168 -0.06480013 0.02803397 -0.069562316 -0.06012479 -0.05789321
0.063216664 -0.0051642647 0.02854171 0.015311466 0.0057813847 -0.060602214 0.05830185 -0.062717676
0.033535402 -0.057665583 0.022932185 0.06966065 -0.073695324 0.06074049 -0.0667324 0.021565031
-0.06555285 0.011229724 0.020312617 0.049619764 0.058205344 -0.039014544 -0.054133803 0.04499834
0.043269828 -0.05179628 -0.086982235 -0.045253288 -0.04154805 -0.045621246 0.08175896 -0.075852506
0.05045399 0.055784088 -0.061536875 -0.071560726 -0.07929354 0.099728905 -0.07158925 -0.031730928
00000000: f4e9 80bc b4bc 93bd d4c5 543d 35c8 6e3d
00000010: c963 86bc 88c3 e03c 1b86 8e3d 380f 4bbc
00000020: 46d8 02bd 859e 9bbd 3d61 8dbd 9e7f 62bd
00000030: c65b a1bd 86e2 773c 8d7a 373d c4cf 393d
00000040: 9cc7 ddbb 4f38 a0bd f997 073d d7ea 783d
00000050: 2476 ccbd 7c66 16bb e4fc 203c d5ac 6f3c
00000060: de9d afbd 1b1b 7b3d 4c7d 73bd 849a bebd
00000070: 203e bb3d a049 a33d 3382 133d 51ce b83c
00000080: 6dd4 83bd 214e 35bd e6e4 02bd 5952 27bd
00000090: a289 be3d 485b de3b af47 72bc 91ef 173d
000000a0: 95ac ea3c ad65 47bd 0cb4 a0bd 3236 b9bd
000000b0: d38d 333d 170f 1f3c cae3 f83a 3625 6e3d
000000c0: af5c cbbc 3127 013b a188 85bd f579 f03a
000000d0: fd3c dfbd 6aa1 b53c f09d 0dbd 9354 84bd
000000e0: e955 243c 1b1a 6d3d c466 5bbd e87f 22bd
000000f0: 8800 aabc ee5d 28bd 92cb 69bd 52f4 1cbd
00000100: 0e85 833d 6cfc 9c3c fbb6 babd 8729 9f3d
00000110: 1b64 433d 13d9 6fbd 1d2b 833d 8653 71bd
00000120: f5c3 84bd fe61 deba 7ec5 a0bd 4e12 903a
00000130: bc14 9bbd c008 22bd b05e 88bd 74d2 2cbd
00000140: 4a69 56bd 5755 4dbd b987 cabd eeb5 84bd
00000150: 7fa7 e53c b076 8ebd 6945 76bd 6e21 6dbd
00000160: bd77 813d fe38 a9bb 4ed0 e93c f1dc 7a3c
00000170: c571 bd3b 073a 78bd eccd 6e3d 2072 80bd
00000180: 6b5c 093d bf32 6cbd 47dc bb3c 3eaa 8e3d
00000190: 93ed 96bd 05cb 783d ffaa 88bd 26a9 b03c
000001a0: 9340 86bd e0fc 373c a566 a63c 183e 4b3d
000001b0: ba68 6e3d b7cd 1fbd 68bb 5dbd 2e50 383d
000001c0: b43b 313d 5628 54bd be23 b2bd 835b 39bd
000001d0: 4a2e 2abd 58dd 3abd 3e71 a73d 8f58 9bbd
000001e0: d8a8 4e3d db7d 643d 170e 7cbd 6e8e 92bd
000001f0: a764 a2bd ab3e cc3d 629d 92bd 4af8 01bd

base.mlp.fc.5.weight f4 [128]
0.92011905 0.94952226 0.9638122 0.97535104 1.0707624 1.0710762 1.0390593 1.0402339
1.0219805 0.9341833 1.003662 0.9409649 0.96818405 1.0261513 1.0670263 1.0340102
1.0122113 0.989129 1.0510836 1.0749364 1.0919399 1.0737184 1.0097342 1.0380671
0.97596776 0.95840114 0.98281175 0.9805594 1.021173 1.0478085 0.93934923 0.97692305
0.9158161 0.98501 0.9852209 1.020626 0.92531204 1.0384998 0.9428607 1.0118421
1.0053209 0.93918693 0.974557 1.0334272 1.028032 1.0292661 1.0334182 1.010654
1.0953139 1.0699121 0.95688707 1.041911 0.9568781 1.0576715 1.0511049 1.0182676
1.0472947 1.0125947 0.96418613 1.0399543 0.94398326 0.983783 1.0407795 1.0132203
1.069484 0.92516106 0.9099506 0.9169754 1.0589031 0.9552028 1.047955 1.078554
0.9255155 0.9223672 1.1290826 0.9323366 1.0057541 0.8722461 1.1058227 0.9058854
0.9275123 0.9921267 0.97041124 1.0196934 1.0368387 0.966629 0.9740846 1.023261
1.0978637 1.1086223 1.0150071 0.9470302 0.95420253 1.0063273 1.0303783 1.0445584
0.9914567 1.0708809 1.0627226 0.9922541 0.9459583 1.0594028 1.0002545 1.0118161
0.9734081 0.917964 0.960751 1.0253502 1.0146531 0.9999769 0.97497773 1.0677801
1.0887023 0.9471198 0.998897 1.043125 0.93797123 0.965144 1.0475646 1.0402399
0.9781781 0.9884261 1.0161785 1.0356756 1.0400379 1.0206993 0.94555473 0.9434362
00000000: ec8c 6b3f e413 733f 65bc 763f 9bb0 793f
00000010: be0e 893f 0619 893f e5ff 843f 6226 853f
00000020: 42d0 823f a326 6f3f ff77 803f 13e3 703f
00000030: e9da 773f ed58 833f 5194 883f 725a 843f
00000040: 2490 813f 8f37 7d3f e889 863f 8497 893f
00000050: b0c4 8b3f 9b6f 893f f83e 813f 62df 843f
00000060: 06d9 793f c759 753f 8d99 7b3f f105 7b3f
00000070: ccb5 823f 971e 863f 3179 703f a117 7a3f
00000080: ed72 6a3f 9e29 7c3f 7037 7c3f dfa3 823f
00000090: 40e1 6c3f 90ed 843f 525f 713f 0b84 813f
000000a0: 5bae 803f 8e6e 703f 917c 793f 5847 843f
000000b0: 8d96 833f febe 833f 0c47 843f 1c5d 813f
000000c0: 3f33 8c3f e1f2 883f 8df6 743f 575d 853f
000000d0: f7f5 743f c861 873f 9b8a 863f 9856 823f
000000e0: c10d 863f b49c 813f e7d4 763f 391d 853f
000000f0: e3a8 713f 34d9 7b3f 4338 853f 34b1 813f
00000100: dae4 883f 5bd7 6c3f 86f2 683f e6be 6a3f
00000110: 238a 873f 2c88 743f 6423 863f 0f0e 8a3f
00000120: 95ee 6c3f 4220 6c3f c785 903f 9dad 6e3f
00000130: 8dbc 803f 854b 5f3f 998b 8d3f 1be8 673f
00000140: 7271 6d3f 04fc 7d3f df6c 783f 5085 823f
00000150: 21b7 843f 0075 773f 9c5d 793f 37fa 823f
00000160: cc86 8c3f 56e7 8d3f c1eb 813f 9270 723f
00000170: 9e46 743f 55cf 803f 70e3 833f 17b4 853f
00000180: 1bd0 7d3f a012 893f 4b07 883f 5d04 7e3f
00000190: 532a 723f 839a 873f 5708 803f 3183 813f
000001a0: 4631 793f b0ff 6a3f c7f3 753f ad3e 833f
000001b0: 27e0 813f 7cfe 7f3f 2498 793f 05ad 883f
000001c0: 995a 8b3f 7176 723f b7b7 7f3f 1f85 853f
000001d0: e21e 703f ad13 773f 9916 863f 9526 853f
000001e0: e169 7a3f 7e09 7d3f 2312 823f 0591 843f
000001f0: f61f 853f 46a6 823f e00f 723f 0985 713f

base.mlp.fc.5.bias f4 [128]
0.076281846 0.052639455 0.010995258 -0.012991695 -0.03639407 -0.013215259 0.0069417777 -0.020930288
0.052892424 0.042549178 -0.00097340747 0.070811234 0.013377679 0.071137264 0.020201316 0.03038659
0.043392546 -0.0055808593 0.02472285 -0.03485347 0.03372877 -0.00048942585 -0.021356283 0.044870462
0.03850752 0.022740774 -0.021285744 0.05059099 0.042851944 0.046488248 0.0699843 0.022182267
0.09873168 0.0061086803 0.02556869 -0.026965404 0.09170069 0.03996326 0.0545505 0.05101244
0.05636449 0.065698475 0.051156737 0.011398733 -0.045917816 -0.0074221706 -0.0069214334 0.06817927
-0.03406056 0.04570801 0.04510169 -0.037454452 0.039874397 -0.036676794 0.010180784 0.033396613
-0.0057761604 0.039451193 0.059462205 0.0553579 0.026072877 -0.01599935 0.03694631 0.029005814
0.03338769 0.08720393 0.09309031 0.025933338 0.007690014 0.08158825 0.00089985627 -0.0065166866
0.074265316 0.07822059 -0.028405068 0.03910923 0.009243962 0.046579115 0.034140926 0.06033304
0.056686874 0.0654256 0.018921275 0.03091991 -0.023830408 0.03721929 -0.00050038146 -0.032049514
-0.027364766 -0.019166917 -0.014819927 0.052252106 0.024776813 -0.029149564 0.048033178 0.019984368
0.04403073 -0.04174811 0.010796304 0.025864825 0.056722976 0.04956861 0.00221148 0.019280642
-0.026665289 0.019820383 0.047759738 -0.006558849 -0.0023333542 0.017986683 0.033674564 -0.0035674626
-0.02548078 0.0468734 -0.061271865 0.022442287 0.05166453 -0.0042634457 0.030145572 -0.010755935
0.033858795 0.06717511 -0.008342744 0.022852838 -0.036871396 0.048097823 0.07048257 0.07549579
00000000: a839 9c3d 789c 573d 7425 343c 1edb 54bc
00000010: f311 15bd d084 58bc da77 e33b ff75 abbc
00000020: baa5 583d 0c48 2e3d 452c 7fba 7b05 913d
00000030: 0d2e 5b3c 6ab0 913d 3b7d a53c 4ced f83c
00000040: 62bc 313d a4df b6bb 9387 ca3c 83c2 0ebd
00000050: 2e27 0a3d d04c 00ba 5ff3 aebc 17ca 373d
00000060: 10ba 1d3d dc4a ba3c 715f aebc 7f38 4f3d
00000070: 8585 2f3d 766a 3e3d ee53 8f3d 96b7 b53c
00000080: d633 ca3d 532b c83b 6e75 d13c 8de6 dcbc
00000090: 92cd bb3d 84b0 233d 5870 5f3d 6cf2 503d
000000a0: 74de 663d ec8c 863d ba89 513d c0c1 3a3c
000000b0: 5214 3cbd ae35 f3bb 31cd e2bb 93a1 8b3d
000000c0: 1683 0bbd 5338 3b3d 8dbc 383d d769 19bd
000000d0: 5653 233d 683a 16bd 4ecd 263c e3ca 083d
000000e0: f245 bdbb 9397 213d a48e 733d f7be 623d
000000f0: c996 d53c 1211 83bc 0455 173d 9a9d ed3c
00000100: 88c1 083d f997 b23d 22a6 be3d 2772 d43c
00000110: 83fc fb3b be17 a73d 55e4 6b3a ee89 d5bb
00000120: 6a18 983d 1e32 a03d bfb1 e8bc 0031 203d
00000130: fd73 173c bec9 3e3d 5bd7 0b3d c71f 773d
00000140: 7f30 683d dbfd 853d ca00 9b3c c04b fd3c
00000150: fd37 c3bc 4173 183d 082c 03ba 5a46 03bd
00000160: 132c e0bc f003 9dbc 47cf 72bc 4e06 563d
00000170: bef8 ca3c 11cb eebc 70be 443d 42b6 a33c
00000180: 9159 343d 1100 2bbd fbe2 303c 78e2 d33c
00000190: 5a56 683d 7408 4b3d 7aee 103b 70f2 9d3c
000001a0: 2a71 dabc 5b5e a23c b79f 433d 9deb d6bb
000001b0: 30eb 18bb cf58 933c 57ee 093d 17cc 69bb
000001c0: 12bd d0bc 53fe 3f3d 35f8 7abd e3d8 b73c
000001d0: 309e 533d 60b4 8bbb d9f3 f63c a939 30bc
000001e0: 85af 0a3d 1b93 893d 01b0 08bc e035 bb3c
000001f0: 7606 17bd 3902 453d 2a59 903d 899d 9a3d

rnn.gru.weight_ih_l0 f4 [384, 128]
-0.010555356 -0.07655199 -0.20167083 0.0038578077 -0.06454806 0.023276657 0.07105375 0.012187703
-0.19611119 0.034022436 -0.20385711 -0.080260806 0.24439254 -0.08529233 -0.16572024 -0.14647265
-0.0409943 0.133895 -0.21399195 0.15310402 0.009849496 0.14320722 -0.03579982 -0.121696874
-0.017664403 0.009421914 -0.010457649 0.08923939 -0.011252302 -0.15871163 0.039651237 -0.12611064
-0.038280986 0.13124508 0.069587536 -0.07692055 -0.10299481 -0.005530179 -0.121309854 -0.1291584
-0.070721865 -0.024024328 -0.08931154 -0.03651829 0.0328392 0.022293152 -0.00020954454 -0.019515553
0.05881297 -0.08247644 -0.06547867 0.20464824 -0.05579386 -0.15187906 -0.019329403 -0.16362454
0.057433486 0.03991928 -0.013696363 -0.06741437 -0.1596727 0.1462698 -0.16774687 -0.07406922
0.02740981 -0.1723308 -0.017245367 -0.0039931857 0.09462884 -0.078022085 -0.02787791 0.0050256685
0.026677858 -0.06389205 0.08999493 -0.037328936 -0.059924748 0.12373048 -0.0028831686 0.026444748
0.025924876 0.008131833 -0.11645701 -0.12981819 -0.01809223 -0.003124617 -0.068482466 0.09082496
0.050216738 0.08923968 0.008426049 -0.11956278 -0.05361449 0.10247128 -0.025260689 -0.098726794
-0.07561463 0.15671092 -0.15028551 -0.16203754 -0.10980872 -0.10448743 0.020814275 -0.0542483
0.13326149 -0.009262226 0.011290355 0.03581633 0.09869659 -0.09328092 0.03180316 -0.021843754
-0.11877447 -0.020376975 0.17839603 0.06117306 -0.13513902 0.15069857 -0.030872896 0.09454926
-0.10655474 -0.013042659 0.01800058 -0.1615603 0.051521685 -0.008926854 -0.05581868 -0.036463857
0.013213302 0.061587617 -0.016706597 0.024132775 -0.0021113574 0.08757259 -0.14236863 -0.13969433
0.088312805 0.005984659 -0.08109839 0.06703624 0.049703795 -0.15573178 0.15301219 -0.07545956
0.09646078 0.0010697776 -0.011186595 -0.1618981 -0.11645589 0.06286563 -0.05426779 -0.050055407
0.095775895 0.039009847 -0.017699366 -0.054960612 -0.12924932 -0.012366626 -0.029597396 -0.00018502805
0.035821673 0.034863446 -0.04576316 0.05266233 -0.09626247 -0.19448596 0.01509894 -0.093718745
0.122653104 -0.022719745 0.013291683 0.036943935 -0.027724998 -0.08593766 0.035761934 0.025128044
-0.22177629 -0.05996469 -0.055952553 -0.070753254 0.009776124 -0.013800873 0.03991495 0.07310364
0.097808115 -0.010027195 -0.062100783 -0.015925203 -0.13162735 0.16306137 0.027769847 0.004103148
-0.00021493713 0.032176297 -0.045558095 -0.11177462 0.047486242 0.076386206 0.087808326 0.047847133
-0.0028633552 -0.10252992 -0.11843653 -0.07194124 -0.027338995 -0.10451789 -0.018261366 -0.0922585
0.006585489 0.018569427 -0.098576024 0.037652075 0.091099024 -0.04926423 -0.101548105 -0.027061665
-0.07194565 -0.059620194 0.114451565 0.048261687 -0.035908975 0.03213221 -0.027658388 0.0032950675
0.005891149 0.0010373337 -0.015253777 -0.0200197 -0.0727823 -0.11685052 -0.05929041 0.08845224
-0.03179985 -0.062574945 0.0940943 0.01996382 -0.04839427 0.008526703 0.12691501 0.1569735
-0.10021131 0.021180125 -0.11770979 0.056427944 0.04716023 0.07440436 0.0017695064 0.030668821
0.045122582 0.0859218 0.043816455 -0.09514821 0.003563015 0.004977543 -0.08651572 -0.061587617
00000000: 5ff0 2cbc 4ac7 9cbd cc82 4ebe 46d3 7c3b
00000010: c631 84bd b0ae be3c a184 913d eeae 473c
00000020: 5fd1 48be 1c5b 0b3d ebbf 50be c75f a4bd
00000030: 0a42 7a3e bfad aebd 91b2 29be edfc 15be
00000040: a4e9 27bd c51b 093e b520 5bbe 4dc7 1c3e
00000050: c85f 213c eaa4 123e d5a2 12bd 363c f9bd
00000060: f0b4 90bc 5f5e 1a3c 8f56 2bbc 24c3 b63d
00000070: 935b 38bc 4d85 22be 5669 223d 2623 01be
00000080: 86cc 1cbd 1c65 063e e983 8e3d 8588 9dbd
00000090: f1ee d2bd 8136 b5bb 4d71 f8bd 1a42 04be
000000a0: a0d6 90bd abce c4bc f8e8 b6bd 3494 15bd
000000b0: 6682 063d 21a0 b63c 2fb9 5bb9 15df 9fbc
000000c0: dee5 703d 68e9 a8bd ae19 86bd 4f8f 513e
000000d0: 1a88 64bd 2f86 1bbe b258 9ebc 318d 27be
000000e0: 603f 6b3d 6682 233d b666 60bc 8c10 8abd
000000f0: 3e81 23be c0c7 153e d6c5 2bbe 9ab1 97bd
00000100: 8a8a e03c 7c77 30be 2846 8dbc 45d9 82bb
00000110: c4cc c13d 0bca 9fbd 3760 e4bc 5dae a43b
00000120: 868b da3c d6d9 82bd 434f b83d 3ae6 18bd
00000130: a773 75bd 6866 fd3d 8bf3 3cbb a8a2 d83c
00000140: 6860 d43c 613b 053c 0381 eebd 0fef 04be
00000150: 2836 94bc 60c6 4cbb 8940 8cbd 7002 ba3d
00000160: 11b0 4d3d 4bc3 b63d 690d 0a3c 55dd f4bd
00000170: de9a 5bbd 76dc d13d 81ef cebc 4631 cabd
00000180: d8db 9abd d478 203e 72e4 19be 2bed 25be
00000190: 65e3 e0bd 81fd d5bd b382 aa3c 7733 5ebd
000001a0: b375 083e 97c0 17bc 2efb 383c 25b4 123d
000001b0: 7021 ca3d 110a bfbd 0844 023d acf1 b2bc
000001c0: 0840 f3bd 9ded a6bc 73ad 363e 9a90 7a3d
000001d0: e261 0abe ba50 1a3e 28e9 fcbc 0ba3 c13d
000001e0: 5f39 dabd e0b0 55bc f475 933c 1070 25be
000001f0: 6708 533d f041 12bc 21a2 64bd 205b 15bd
00000200: 9b7c 583c 4c43 7c3d 46dc 88bc 19b2 c53c
00000210: b35e 0abb 4259 b33d 15c9 11be 080c 0fbe
00000220: 58dd b43d f51a c43b ea16 a6bd 4c4a 893d
00000230: 3596 4b3d 2778 1fbe 3aaf 1c3e 8b8a 9abd
00000240: 3b8d c53d c837 8c3a fb47 37bc 9ec8 25be
00000250: 6d80 eebd b2bf 803d e747 5ebd e606 4dbd
00000260: 2726 c43d cac8 1f3d 43fe 90bc 611e 61bd
00000270: ef59 04be 649d 4abc 3d76 f2bc 1704 42b9
00000280: bfb9 123d f9cc 0e3d 2772 3bbd 75b4 573d
00000290: 4225 c5bd 5427 47be 8b61 773c 9def bfbd
000002a0: 8d31 fb3d c21e babc 5cc5 593c 8652 173d
000002b0: 891f e3bc 1500 b0bd 1b7b 123d 54d9 cd3c
000002c0: 5319 63be 899d 75bd 812e 65bd 15e7 90bd
000002d0: 092c 203c 0f1d 62bc dc7d 233d 5cb7 953d
000002e0: 9f4f c83d 1b49 24bc 645d 7ebd 9275 82bc
000002f0: 52c9 06be 8ff9 263e 977d e33c b373 863b
00000300: bf60 61b9 4bcb 033d 209b 3abd 18ea e4bd
00000310: ef80 423d 5f70 9c3d dad4 b33d 5bfb 433d
00000320: 21a7 3bbb 35fb d1bd da8e f2bd ee55 93bd
00000330: 07f6 dfbc 7a0d d6bd dc98 95bc 06f2 bcbd
00000340: 16cb d73b e91e 983c 3ae2 c9bd 1039 1a3d
00000350: 2092 ba3d 4ac9 49bd 74f8 cfbd 6db0 ddbc
00000360: 3e58 93bd 4e34 74bd 9565 ea3d 0cae 453d
00000370: 4a15 13bd 109d 033d d893 e2bc 0ff2 573b
00000380: 8a0a c13b 25f7 873a faea 79bc 5b00 a4bc
00000390: e30e 95bd 534f efbd 80da 72bd 7326 b53d
000003a0: 8f40 02bd 4b27 80bd 83b4 c03d 2a8b a33c
000003b0: 1239 46bd 96b3 0b3c 02f6 013e a9bd 203e
000003c0: 963b cdbd f181 ad3c d511 f1bd fd20 673d
000003d0: 162b 413d 5061 983d c8ee e73a 2e3d fb3c
000003e0: 75d2 383d c5f7 af3d e278 333d 11dd c2bd
000003f0: 7981 693b a81a a33b 272f b1bd 4c43 7cbd

rnn.gru.weight_hh_l0 f4 [384, 128]
-0.01261886 -0.13741949 -0.0351702 -0.14319307 -0.03573247 0.053043 -0.031761896 -0.08702845
-0.18266897 0.06245463 0.060604833 -0.0038548966 -0.09880748 0.1180551 0.020169472 0.007840181
-0.040260103 -0.04833654 0.022146367 0.1589009 -0.07001147 -0.07879136 0.03676785 -0.14591417
-0.12843472 0.09656563 0.08964458 -0.03409975 0.048628822 0.077715866 -0.019767335 -0.076495714
0.004790026 -0.090832904 0.2059968 0.016327282 0.011148403 0.096053444 0.13370284 -0.015029078
-0.14592932 -0.039830845 -0.11988398 0.024372846 -0.07811485 -0.09779729 -0.11320205 0.15176454
0.053506754 -0.04098185 -0.0002758126 -0.06426021 -0.22065699 -0.06505269 -0.011661056 -0.033275876
0.025745438 0.0123834275 0.04816769 0.022309978 -0.029845806 -0.0819108 -0.04861149 0.1289244
-0.15038078 -0.10475897 -0.08150764 0.14845724 -0.08933908 -0.04484913 -0.02335587 -0.081167676
-0.05492763 0.005480341 0.03433606 -0.13783598 0.08625178 0.07406252 0.104412295 -0.020411778
-0.048905347 -0.10817648 -0.01513322 0.09982264 0.12717593 0.090186566 -0.015652934 -0.062231924
-0.116212875 -0.06148306 -0.058314595 0.11154226 -0.15391421 -0.042282287 0.06267801 -0.1366323
-0.009398287 -0.05463187 0.11135042 -0.09304768 -0.0549677 -0.07312811 -0.01882264 -0.0793361
-0.0634595 -0.09107317 0.10528395 0.0012169358 0.052471187 0.037865784 -0.033748332 -0.0732436
-0.022706928 0.12574466 0.052834377 -0.061904278 -0.070621714 -0.03769369 -0.056461293 0.044890612
0.09834441 -0.22192925 -0.050322264 0.08360644 0.1078424 -0.14902018 0.09082427 -0.01523081
0.1406363 -0.10437999 -0.056395262 0.047483683 -0.087161414 -0.0925229 0.09996427 -0.016946198
-0.07257459 0.029176923 0.006814039 0.049573034 -0.0025924586 -0.09355351 0.08558563 0.05890708
0.092531726 -0.0032471346 0.15831517 0.046156455 -0.110420324 -0.033752464 -0.079991 -0.066542864
0.06938894 0.039442003 -0.12195393 -0.036679044 -0.15009372 -0.018230837 -0.051203724 -0.039314546
-0.048613362 0.019426528 -0.0036609273 -0.035668816 0.064154446 0.06646822 -0.06301268 -0.05086673
0.06691255 -0.053709593 -0.060402956 0.022248589 -0.0517953 0.08086887 -0.07628923 0.03955575
0.116498694 0.123243615 -0.035266303 -0.0021382212 -0.041529372 -0.045412928 -0.0077492357 0.0047859177
0.0041852742 -0.1065164 -0.06533277 0.0039040043 -0.04727172 0.011699746 -0.09180239 0.002578714
-0.07950823 0.07541869 -0.022989674 0.056390826 -0.03995556 0.11724927 -0.083933614 -0.0047698584
0.036571793 0.0047487603 0.009033031 -0.013005232 0.10590571 -0.022640362 -0.11102805 0.03775917
-0.006227092 -0.011401033 -0.058509834 -0.04039476 0.15482473 0.09417459 0.05884624 0.061846524
0.08380381 0.052036665 -0.0992075 0.028246837 0.011101076 0.0034268033 -0.08912511 -0.15997766
-0.049574945 -0.03758745 0.038607698 0.098811895 0.002640213 0.110183515 -0.014830016 -0.005923863
0.083441176 -0.03380536 -0.041615058 0.09914336 0.028404906 0.053428173 -0.012674065 -0.0010502184
-0.029938173 0.02531035 0.06079237 0.048521593 -0.074891016 -0.13251483 0.027037106 -0.022619775
0.110105716 0.101540916 0.061754365 -0.103313774 0.009368029 -0.012540125 0.1203397 -0.019707391
00000000: 56bf 4ebc b2b7 0cbe a10e 10bd 34a1 12be
00000010: 365c 12bd 9e43 593d c318 02bd f93b b2bd
00000020: 930d 3bbe 6dd0 7f3d c63c 783d 6fa2 7cbb
00000030: 935b cabd dfc6 f13d 733a a53c 1a74 003c
00000040: c7e7 24bd 89fc 45bd 4c6c b53c ebb6 223e
00000050: 2c62 8fbd 5d5d a1bd e399 163d 866a 15be
00000060: 6484 03be 33c4 c53d 9497 b73d 2eac 0bbd
00000070: 042f 473d 7f29 9f3d 1bef a1bc c9a9 9cbd
00000080: a7f5 9c3b 9a06 babd d3f0 523e cbc0 853c
00000090: cba7 363c abb7 c43d 66e9 083e 863c 76bc
000000a0: 7f6e 15be ab25 23bd bb85 f5bd 90a9 c73c
000000b0: aefa 9fbd f249 c8bd 7ad6 e7bd 2a68 1b3e
000000c0: e629 5b3d 96dc 27bd f19a 90b9 db9a 83bd
000000d0: e8f3 61be 583a 85bd 040e 3fbc 494c 08bd
000000e0: 19e8 d23c dce3 4a3c 7c4b 453d 6ac3 b63c
000000f0: 317f f4bc d9c0 a7bd d71c 47bd c204 043e
00000100: 6bfd 19be df8b d6bd 7aed a6bd 2d05 183e
00000110: 68f7 b6bd b9b3 37bd cf54 bfbc 3d3b a6bd
00000120: cbfb 60bd 6f94 b33b f8a3 0c3d e024 0dbe
00000130: c6a4 b03d 17ae 973d 1dd6 d53d 9a36 a7bc
00000140: f950 48bd a18b ddbd 53f1 77bc d06f cc3d
00000150: 683a 023e bcb3 b83d 953a 80bc e7e6 7ebd
00000160: 0401 eebd a9d5 7bbd 49db 6ebd 4570 e43d
00000170: b09b 1dbe 3130 2dbd 545d 803d 56e9 0bbe
00000180: 46fb 19bc abc5 5fbd b00b e43d c88f bebd
00000190: d025 61bd 31c4 95bd f031 9abc f77a a2bd
000001a0: 0ef7 81bd 9284 babd 1d9f d73d 9781 9f3a
000001b0: 07ec 563d 2719 1b3d b13b 0abd be00 96bd
000001c0: e103 babc 35c3 003e dc68 583d 578f 7dbd
000001d0: 1ea2 90bd b364 1abd f543 67bd 38df 373d
000001e0: cb68 c93d 6c41 63be b81e 4ebd da39 ab3d
000001f0: 7adc dc3d bf98 18be 1302 ba3d a68a 79bc
00000200: f602 103e 2dc5 d5bd b8fe 66bd 407e 423d
00000210: af81 b2bd a57c bdbd 11ba cc3d c1d2 8abc
00000220: fda1 94bd 7104 ef3c 4d48 df3b 180d 4b3d
00000230: 3de6 29bb fc98 bfbd 8547 af3d 8d48 713d
00000240: 4681 bd3d e1cd 54bb 5f1d 223e 8d0e 3d3d
00000250: 0d24 e2bd 0640 0abd 52d2 a3bd a047 88bd
00000260: ca1b 8e3d f08d 213d fbc2 f9bd c43c 16bd
00000270: 2bb2 19be d658 95bc ffba 51bd 4a08 21bd
00000280: ce1e 47bd 6224 9f3c 2bec 6fbb 7719 12bd
00000290: 6863 833d 7d20 883d cb0c 81bd a259 50bd
000002a0: 7209 893d 97fe 5bbd 1769 77bd ac42 b63c
000002b0: 4f27 54bd 949e a53d 873d 9cbd 3605 223d
000002c0: de96 ee3d 2667 fc3d 6673 10bd 6621 0cbb
000002d0: b41a 2abd e802 3abd 4ded fdbb 30d3 9c3b
000002e0: a024 893b 4525 dabd 30cd 85bd 53da 7f3b
000002f0: fe9f 41bd 4bb0 3f3c e402 bcbd a4ff 283b
00000300: 36d5 a2bd 1d75 9a3d d754 bcbc 11fa 663d
00000310: 71a8 23bd 6320 f03d 63e5 abbd 794c 9cbb
00000320: 4ecc 153d 7d9b 9b3b 47ff 133c e613 55bc
00000330: 18e5 d83d 4878 b9bc ad62 e3bd 5ca9 1a3d
00000340: a20c ccbb 66cb 3abc 02a8 6fbd fa74 25bd
00000350: 608a 1e3e 9cde c03d c108 713d c852 7d3d
00000360: 55a1 ab3d 6624 553d 4d2d cbbd e965 e73c
00000370: 4ae1 353c 3894 603b 3a87 b6bd 2fd1 23be
00000380: 190f 4bbd 4cf5 19bd 1b23 1e3d e45d ca3d
00000390: 6c07 2d3b e5a7 e13d 98f9 72bc f71c c2bb
000003a0: 35e3 aa3d 7d77 0abd 8d74 2abd ad0b cb3d
000003b0: 68b1 e83c 80d7 5a3d e2a6 4fbc 7ba7 89ba
000003c0: e640 f5bc a757 cf3c 6c01 793d 94be 463d
000003d0: 7660 99bd f8b1 07be ec7c dd3c 1b4d b9bc
000003e0: 1b7f e13d aff4 cf3d 25f2 7c3d 2c96 d3bd
000003f0: 5d7c 193c 1975 4dbc a974 f63d 6571 a1bc

rnn.gru.bias_ih_l0 f4 [384]
0.051266868 -0.01586345 -0.021830957 -0.047811948 -0.024681447 0.12871432 0.022908151 -0.060441207
0.051563554 0.09408987 0.018988077 -0.107782945 0.07098567 -0.021350723 0.07908808 0.08223255
0.055449028 0.046283104 0.07752845 0.012421368 0.08187214 -0.01840976 0.059913512 0.039914
0.03615348 0.011055488 0.06482665 -0.053479303 -0.014437453 0.05728606 0.019535718 -0.09103708
0.043460477 0.039689276 0.07888768 -0.07172779 0.09698851 -0.042711254 0.06882631 0.020699024
0.051931694 -0.055639498 -0.1290138 -0.030021755 0.07177067 0.021598192 -0.03846684 -0.067862764
-0.09470708 -0.060855668 0.07612494 0.038305573 0.019489925 -0.0073938007 0.07109255 -0.09648644
0.051399652 -0.024603385 0.019393738 0.033036742 0.14434609 0.04687016 0.092412256 0.005818793
-0.08095769 0.11223023 -0.04316003 0.031500574 0.059523676 0.06059448 0.037714735 0.07145949
-0.10292544 -0.027480414 0.002747216 0.0620496 -0.018728886 -0.0012748932 -0.08794612 -0.08871009
0.031136986 0.059263907 -0.044445146 -0.05979304 0.07575658 -0.011772389 0.06366026 -0.01644708
-0.037148446 -0.005405943 0.08987642 -0.026338179 0.006834007 -0.00012295446 0.062303673 -0.05227448
0.13774277 -0.0043980735 0.11751078 -0.004842974 0.03051797 0.004845629 0.043442417 0.124360345
-0.06429234 0.079729 0.04097238 0.036152177 0.07235438 -0.074394815 0.07292171 0.064685196
0.17997426 0.00014130276 -0.13261244 0.042051908 -0.08211579 0.04899503 0.0029609117 0.069381535
0.041030742 -0.05899116 -0.06887645 -0.07919561 0.10761159 0.16255276 0.051405843 0.08565591
-0.034623027 0.038126677 -0.06003901 0.04810415 -0.077000625 -0.12673642 -0.18461005 0.05482855
0.026806694 -0.087736234 -0.010173056 0.037301984 -0.020866556 -0.037068225 -0.13230604 -0.08150393
0.013281344 -0.10202584 -0.10026217 -0.113343716 -0.18434878 -0.039434806 -0.25290427 -0.044409573
-0.04313343 0.007046851 -0.064321116 -0.0066070356 -0.043628044 0.007517361 0.1300755 0.03918819
0.065574564 -0.11649735 -0.11754141 -0.08247686 0.014351105 -0.17116463 0.063052215 0.0034069463
-0.00084056007 -0.033483844 0.0008234577 0.06764307 -0.080224484 -0.033724163 0.026293777 -0.045426637
-0.08445625 -0.031422168 -0.14242269 -0.16611631 0.0341679 -0.02239628 -0.030044083 -0.062347468
0.120623514 0.028804125 -0.055823646 -0.056758363 0.046028674 0.061347365 0.10170679 0.028293751
-0.116327316 -0.06506827 0.10295708 0.05802788 0.042538323 -0.101491556 -0.008649753 0.004369797
-0.099184 0.11710133 0.08286666 0.04692733 0.082026824 0.076064534 0.060339533 0.03755715
0.043355305 -0.021924485 -0.12857617 -0.0012885504 -0.001254607 0.005781483 -0.045311414 -0.15837175
0.02239138 0.023093628 0.06714297 0.031419132 -0.009699854 -0.19811678 0.0076989536 0.07581103
-0.030692022 -0.036820725 0.004635424 0.07387547 -0.17255948 -0.11389567 0.10002667 -0.071317516
0.027627671 -0.0737363 -0.17215967 -0.102488935 0.073339514 -0.14808087 -0.042172182 -0.1849349
0.008776475 -0.06738614 -0.16422774 -0.0912357 -0.019811135 0.021454118 -0.0448997 0.010533587
-0.06800922 -0.06544481 0.0337468 -0.0058012106 0.1137689 -0.042327277 0.041149043 0.10734531
00000000: 35fd 513d 11f4 81bc d6d6 b2bc 76d6 43bd
00000010: bf30 cabc b0cd 033e e0a9 bb3c 3391 77bd
00000020: 4e34 533d 31b2 c03d e28c 9b3c 4ebd dcbd
00000030: ef60 913d b6e7 aebc eef8 a13d 8a69 a83d
00000040: 851e 633d 5a93 3d3d 3cc7 9e3d fe82 4b3c
00000050: 95ac a73d 11d0 96bc df67 753d dd7c 233d
00000060: ac15 143d 1422 353c d6c3 843d 1d0d 5bbd
00000070: 118b 6cbc caa4 6a3d 5f09 a03c a671 babd
00000080: 9d03 323d 3991 223d dd8f a13d 05e6 92bd
00000090: e9a1 c63d fff1 2ebd cff4 8c3d 0091 a93c
000000a0: 54b6 543d 3ee6 63bd 321c 04be 2ff0 f5bc
000000b0: 80fc 923d b1ee b03c 688f 1dbd a2fb 8abd
000000c0: c9f5 c1bd cb43 79bd 64e7 9b3d 4ee6 1c3d
000000d0: 56a9 9f3c b247 f2bb f998 913d af9a c5bd
000000e0: 7188 523d 0a8d c9bc 9edf 9e3c 8951 073d
000000f0: 76cf 133e edfa 3f3d a342 bd3d 93ab be3b
00000100: 25cd a5bd f6d8 e53d 92c8 30bd bf06 013d
00000110: 19cf 733d eb31 783d c47a 1a3d 5a59 923d
00000120: 93ca d2bd 9b1e e1bc a30a 343b b927 7e3d
00000130: 526d 99bc 511a a7ba 181d b4bd a3ad b5bd
00000140: fe12 ff3c b6be 723d 1d0c 36bd 8ce9 74bd
00000150: 4426 9b3d fae0 40bc 4f60 823d 07bc 86bc
00000160: f828 18bd 5624 b1bb 2111 b83d 2ac3 d7bc
00000170: ceef df3b 56ed 00b9 2332 7f3d c41d 56bd
00000180: 710c 0d3e b71d 90bb 7ea9 f03d cfb1 9ebb
00000190: d200 fa3c 15c8 9e3b adf0 313d a3b0 fe3d
000001a0: b4ab 83bd f548 a33d a8d2 273d 4e14 143d
000001b0: 882e 943d 4f5c 98bd fa57 953d ac79 843d
000001c0: 2c4b 383e ac2a 1439 8ecb 07be 9f3e 2c3d
000001d0: 532c a8bd 03af 483d db0b 423b e817 8e3d
000001e0: da0f 283d b7a0 71bd 190f 8dbd 4f31 a2bd
000001f0: 7763 dc3d 3b74 263e ef8e 523d 5e6c af3d
00000200: e0d0 0dbd b82a 1c3d 77eb 75bd db08 453d
00000210: 81b2 9dbd 31c7 01be 6b0a 3dbe e793 603d
00000220: b699 db3c 0eaf b3bd e4ac 26bc f7c9 183d
00000230: 57f0 aabc dad4 17bd 3c7b 07be 88eb a6bd
00000240: ff99 593c ecf2 d0bd 4156 cdbd c020 e8bd
00000250: edc5 3cbe 6486 21bd ab7c 81be d0e6 35bd
00000260: aeac 30bd 45e9 e63b caba 83bd d57f d8bb
00000270: 52b3 32bd 3254 f63b 8332 053e cc83 203d
00000280: f54b 863d 2a96 eebd 8db9 f0bd a1e9 a8bd
00000290: e620 6b3c c845 2fbe 8521 813d 1347 5f3b
000002a0: 0859 5cba 5b26 09bd 50dd 573a 7388 8a3d
000002b0: bc4c a4bd 5922 0abd 0c66 d73c 4811 3abd
000002c0: 66f7 acbd 88b4 00bd 41d7 11be 651a 2abe
000002d0: a4f3 0b3d 6778 b7bc 021f f6bc 0f60 7fbd
000002e0: 7609 f73d a1f6 eb3c 56a7 64bd 757b 68bd
000002f0: 9088 3c3d 6047 7b3d a64b d03d 4cc8 e73c
00000300: 043d eebd 8342 85bd 29db d23d a4ae 6d3d
00000310: aa3c 2e3d ceda cfbd b2b7 0dbc 8430 8f3b
00000320: fb20 cbbd d2d2 ef3d ffb5 a93d df36 403d
00000330: aefd a73d b9c7 9b3d 9626 773d 87d5 193d
00000340: 5595 313d fa9a b3bc 79a9 03be 94e4 a8ba
00000350: a071 a4ba 9872 bd3b 7698 39bd 342c 22be
00000360: 216e b73c d92e bd3c 4182 893d 59b1 003d
00000370: 23ec 1ebc 20df 4abe 8147 fc3b d042 9b3d
00000380: d66d fbbc 54d1 16bd c1e4 973b 064c 973d
00000390: 6fb3 30be 2242 e9bd c8da cc3d eb0e 92bd
000003a0: 6d53 e23c 0f03 97bd a04a 30be b8e5 d1bd
000003b0: 0733 963d 83a2 17be bdbc 2cbd 935f 3dbe
000003c0: 34cb 0f3c bf01 8abd 512b 28be c8d9 babd
000003d0: f64a a2bc 8cc0 af3c bfe8 37bd 1195 2c3c
000003e0: 6b48 8bbd ee07 86bd 163a 0a3d 1518 bebb
000003f0: abff e83d 5e5f 2dbd e68b 283d dcd7 db3d
