marllib/patch/aircombat/JSBSim/model/dodge_missile_model.pt (torch, 700002 bytes, 30 tensors)

base.mlp.fc.0.weight f4 [128, 21]
000000 65 4f 94 3d c8 b0 e6 bd 36 79 75 bd 45 cd 01 3e
       0.07241706 -0.11264187 -0.05993005 0.1267596
000010 5f 40 8b be 68 67 f1 3d f4 8a 7a be bc 15 01 3e
       -0.2719755 0.11787301 -0.24467069 0.12605947
000020 67 22 bf 3c 25 d4 5f 3b fb 43 75 3d 3b c3 12 bd
       0.023331834 0.0034153548 0.059879284 -0.035830718
000030 e7 98 40 3d 0b 8f 46 3d 45 ad 0e bc 3f 52 1b 3c
       0.04702082 0.04847626 -0.008708303 0.009480058
000040 9b 33 2d bc 31 7f 02 bd de d9 22 3e 05 60 a9 3d
       -0.010571386 -0.03185958 0.15903422 0.082702674
000050 a3 c4 84 bd 45 bd cc bd 24 99 aa bd 0e 95 e1 bd
       -0.06482818 -0.09997038 -0.083299905 -0.11014758
000060 e3 09 04 be 42 e4 06 3d f0 4f 41 3e 44 57 8f bd
       -0.12894396 0.032932527 0.1887815 -0.069990665
000070 f2 7c d3 bd 37 8f 4c 3e c8 c8 0d 3e 19 73 6e 3e
       -0.10326566 0.19976507 0.13846123 0.23286094
000080 fc 81 3c 3e 5f c7 1c be 7a ae 3e be 54 81 22 be
       0.1840896 -0.15310429 -0.18621245 -0.15869647
000090 02 b4 34 3e a4 15 19 bd b1 bd 5d 3d 0d 59 04 be
       0.17646793 -0.037374154 0.054135982 -0.12924595
0000a0 3d 0a 69 3e 74 1d eb bd c0 2c fe 3d d3 c1 f3 bb
       0.22757812 -0.11480227 0.12410879 -0.007438877
0000b0 d6 ca 21 be 00 19 f9 3d 4e 74 20 be 49 54 df bb
       -0.15800032 0.121629715 -0.15669367 -0.0068154675
0000c0 06 f0 79 3d f1 f6 35 bd 7d e9 91 be 51 c9 11 be
       0.06101992 -0.044424955 -0.2849845 -0.14236952
0000d0 ac 2e d1 3d 2c d9 53 bd 62 e9 38 3e 1f a1 a7 3d
       0.1021398 -0.051720783 0.18057778 0.08185028
0000e0 84 2a 2e bd c9 76 36 be 49 fd 50 3e 14 b9 e2 3c
       -0.042521015 -0.1781875 0.2040912 0.027676143
0000f0 2d 98 65 be ac e6 c8 3d 8d 2c 2f 3e 56 2b 67 3e
       -0.22421332 0.09809622 0.17106839 0.22575125
000100 6c c2 42 be 78 65 70 bc 56 52 b5 bc 96 8a 93 3d
       -0.19019479 -0.01467263 -0.022133987 0.072041675
000110 a3 1f 48 be f1 11 31 be 66 9c 99 3d bd 3d c3 bd
       -0.19543318 -0.17292 0.07500534 -0.0953326
000120 e4 a2 c3 3d f1 c6 49 bb 36 5b e5 3d d3 5d 5b 3d
       0.09552553 -0.0030788744 0.11199038 0.053556275
000130 8c c1 a4 bd 7f 50 90 3d 78 57 34 be 12 8a 07 3e
       -0.08044729 0.070466034 -0.17611492 0.13236263
000140 8e a7 dc bd 90 22 00 be 4e 3d 8f 3c 97 78 81 bc
       -0.10774146 -0.12513185 0.017485287 -0.015804572
000150 30 0b c5 3d 5a 93 7f be a2 6b 6a be 00 e9 0c 3e
       0.096212745 -0.24958554 -0.22892621 0.13760757
000160 d9 55 9b bd ba 08 da 3d 1f 15 10 be 85 14 31 be
       -0.075847335 0.10646196 -0.14070557 -0.17292984
000170 2c 11 05 3d 7f 0d 54 3d c3 88 d5 bd b6 b5 20 be
       0.03248708 0.051770683 -0.10426476 -0.15694317
000180 5a b8 3d 3d 59 d3 bd 3d 87 c7 cb bd 87 31 8e bd
       0.04631839 0.09268827 -0.09950166 -0.0694304
000190 28 58 4b 3e e5 90 82 bd 28 20 ce 3d ed 9a 6c 3d
       0.19857848 -0.06375293 0.10064727 0.057764936
0001a0 f6 cd b1 bd be 02 3f be 0c ac a7 3e 21 7f 3c 3d
       -0.08681862 -0.1865339 0.3274845 0.046019677
0001b0 d8 c1 57 3e a5 61 89 3d a1 66 c2 3d d2 96 e9 3e
       0.2107004 0.06708077 0.09492231 0.4562288
0001c0 1a 03 7c 3e dd b2 f5 bd 84 1b 1d 3a 2f b8 0a 3e
       0.24610558 -0.11997006 0.0005993175 0.13546823
0001d0 8f 1b 1a 3e 44 22 20 3e f8 fa 0d be e9 e3 30 be
       0.15049575 0.15638071 -0.13865268 -0.17274441
0001e0 cf 2a e2 bd 24 5f a3 3c 8c 14 65 3e a9 f0 ca bd
       -0.11043321 0.019942828 0.2237112 -0.099091835
0001f0 9e 68 08 3e 55 39 0e be 08 ea 14 be 4e 18 f9 bd
       0.13321158 -0.13889058 -0.14542401 -0.12162839
000200 81 10 3d 3e 2b 5e 63 3e 60 fa d1 bd 60 47 d9 3d
       0.18463327 0.22203891 -0.10252833 0.10609317
000210 aa 58 3d 3b 84 e3 6b 3e 51 52 4a 3e 4f bb 3d 3e
       0.002889196 0.23036009 0.19757964 0.18528484
000220 48 ca 18 3e 04 c8 db 3d 24 7c a9 bd 7d 80 e4 bd
       0.14920914 0.10731509 -0.08275631 -0.1115732
000230 e2 92 c5 bd 0c c5 00 bc 97 32 3c be ae 6a d2 3d
       -0.09647156 -0.00785948 -0.18378673 0.10274254
000240 f7 cb 6f 3d 7e 75 09 bd aa a3 c2 3d f4 d2 98 3d
       0.058544125 -0.033559315 0.09503873 0.07462111
000250 9b 6b 57 3e 1c 34 1f 3e e1 ea a5 bd c2 ee 66 3e
       0.21037142 0.15547222 -0.0810144 0.22552016
000260 ba 49 56 bd eb 87 62 3e 20 7a 7c be 7b 60 30 be
       -0.052316405 0.22122161 -0.24655962 -0.17224304
000270 60 ba f8 bd da c3 ab bd 38 29 1b 3e 28 67 94 bd
       -0.12144923 -0.08386965 0.15152442 -0.07246238
000280 5b 6a 8c be 1e b7 62 3d aa fd 1a 3d b9 6a 24 3e
       -0.27424893 0.055350415 0.03783957 0.16056336
000290 10 7e df bd c7 16 ae 3d ad 94 00 be 88 79 50 bd
       -0.109127164 0.08500438 -0.12556715 -0.05089715
0002a0 19 56 2c be 73 fc 14 be 2d 39 1a bd 9e 9b b6 3d
       -0.16829719 -0.14549427 -0.037652183 0.089164004
0002b0 b0 32 1a 3d ed df e0 3d 92 e2 f1 bb 0a 97 ae 3e
       0.037645996 0.109802105 -0.0073817456 0.3409961
0002c0 9d 5d 57 3e 3c 48 d1 39 df 9d 0f be dd f7 20 3e
       0.21031804 0.00039917405 -0.14025067 0.15719552
0002d0 eb 92 0f bd 3a 03 05 3e 8c b7 34 be ad 7b 9b bc
       -0.03505222 0.12989512 -0.17648143 -0.018979872
0002e0 45 66 bf bd a0 ba 64 3e 64 a5 88 be 39 e3 62 be
       -0.09345678 0.22336817 -0.26688683 -0.22156991
0002f0 7e 41 cc bc 87 82 0f be f1 fa ac 3d 1f a5 23 bd
       -0.024933573 -0.14014636 0.08446301 -0.039952394
000300 e7 ba 30 bd 06 ad 5b bc 39 8a 4f 3e 88 cf a7 be
       -0.043146994 -0.013407951 0.20267572 -0.3277552
000310 b7 96 10 3e 4f 63 46 3e b3 b1 86 3e 3b fb 42 be
       0.14119993 0.1937382 0.2630745 -0.1904115
000320 4d 9c 74 3d 40 8e 1a be fd c5 94 3e b5 d5 d7 bd
       0.059719373 -0.15093327 0.29057303 -0.10538808
000330 0f c2 11 3e b7 2b 4f bd 92 33 86 bb f5 f3 b9 bd
       0.14234184 -0.0505788 -0.004095503 -0.09079734
000340 b6 6f 22 3d 58 6d c8 3d 45 90 c8 bb 6e df ac 3d
       0.039657317 0.09786481 -0.006120714 0.08441053
000350 f3 0a 94 be 08 91 15 3e 94 32 2c 3e 26 5a fe 3d
       -0.28914604 0.14606106 0.16816169 0.12419538
000360 de 65 b8 3e 74 ce 8c be a0 22 0c be 8c 34 04 3e
       0.36015218 -0.2750126 -0.13685083 0.1291067
000370 47 73 0a be 8c 33 33 3e b9 49 67 be d4 50 8a be
       -0.13520537 0.17500132 -0.22586717 -0.27014792
000380 73 19 d5 3d bc a0 26 be e3 e2 52 bc a8 b0 0d 3e
       0.10405245 -0.16272253 -0.012871477 0.1383692
000390 83 0d 49 3e b1 ce 36 3e 6d d6 a5 bd 42 31 1a be
       0.1963406 0.17852284 -0.08097539 -0.15057853
0003a0 21 28 9f 3e 12 b8 10 be 2a e3 68 bd 9e be ae 3d
       0.31085303 -0.14132717 -0.056857266 0.08532451
0003b0 72 7b 0c be a9 20 eb 3e 00 46 bf 3d 98 53 21 be
       -0.13718966 0.45923355 0.09339523 -0.15754545
0003c0 57 f8 2b be 72 c5 4f bd ce 34 bb 3d 57 8c 1c bc
       -0.16793953 -0.050725408 0.09140931 -0.009554944
0003d0 46 bf 29 be 36 e2 1b 3b c7 32 0f be 73 ee 34 be
       -0.16576871 0.0023785955 -0.13984214 -0.17669086
0003e0 1e ce d6 bd 62 c8 6b 3e bc e2 53 3e 53 08 b4 bd
       -0.104885325 0.23025659 0.20691961 -0.0879065
0003f0 aa 5c 85 bc 0c 27 d2 3d a2 cd e1 3c a2 39 05 be
       -0.016279537 0.10261354 0.027563874 -0.13010266

base.mlp.fc.0.bias f4 [128]
000000 02 d6 34 3e 3e 5d cc 3b db 87 fc bc 1a da 33 be
       0.17659763 0.0062367013 -0.0308265 -0.17563668
000010 0a 0a e3 3d e3 a5 53 be db b7 39 3e 99 19 0e 3e
       0.11085899 -0.2066875 0.18136542 0.13876952
000020 29 8d 4f 3e bc 94 18 3e 91 41 f2 bd a5 2e 7b 3d
       0.20268692 0.14900488 -0.11828912 0.06132378
000030 ae a3 9c 3c e0 43 35 be ef 38 60 3d 2d 2e 59 be
       0.019121017 -0.17701674 0.054741796 -0.21209021
000040 32 0d 32 3e 2e ff 5e 3e fc ea 82 bd bf 32 29 3a
       0.17387846 0.21777031 -0.06392476 0.00064544
000050 84 e6 6a 3e a5 7f 1c 3e 59 59 01 3e bd 47 1a be
       0.22939497 0.15283068 0.1263174 -0.15066428
000060 95 11 6f bc 7a 28 20 be 3c 62 46 3d 8a a7 5a be
       -0.014591594 -0.1564044 0.048433527 -0.21352974
000070 1a 99 12 bd 2f 2c d7 3d f8 63 54 be 82 22 d7 bd
       -0.03579054 0.10506474 -0.2074126 -0.10504629
000080 d6 58 cf bd 56 8b 55 3e 3e 95 f9 bb e7 c9 a3 3d
       -0.10124366 0.20853934 -0.007616668 0.07997494
000090 00 ed 38 be 0b 85 2b 3d 88 43 18 3e c8 8d 08 bd
       -0.18059158 0.041874927 0.14869511 -0.033338338
0000a0 ee 54 9d bc e4 dc b3 bd 0c 3f d4 3d 2a 01 b8 3d
       -0.019205537 -0.08782366 0.10363588 0.08984597
0000b0 5a 8a 17 bd 98 a0 9a 3d 00 cb 06 be 93 b6 54 be
       -0.036997177 0.07550162 -0.13163376 -0.20772772
0000c0 52 9f 96 bb 32 3c 0c 3e 8d 13 38 be 9d 48 2b be
       -0.004596629 0.13694838 -0.17976208 -0.16726919
0000d0 13 26 84 3d d9 b3 c9 3d 3b a8 ff 3d e5 ae c9 3d
       0.064525746 0.09848756 0.12483259 0.098478116
0000e0 f3 6b 76 be dc 36 1c b9 d9 00 f2 3d f1 9e 54 3d
       -0.24064617 -0.00014897756 0.11816568 0.05190939
0000f0 18 99 95 3d 24 25 05 3e f7 dc f3 3d 0f 12 ef bd
       0.07304591 0.1300245 0.1190738 -0.11673366
000100 f2 65 25 be 32 b0 29 bd f4 41 81 3c 4c 4b 96 3c
       -0.1615217 -0.0414278 0.01577852 0.018346451
000110 a1 a5 8a bd 20 cd 44 3d cf 39 c5 3d e2 79 c0 bd
       -0.067698725 0.048047185 0.09630167 -0.09398247
000120 18 65 ea 3d 0e 13 53 be e2 af c0 3b 2e b1 1e be
       0.11445063 -0.20612738 0.005880342 -0.15497276
000130 c8 b1 32 3e f5 34 3c be fd 0e bc bd b4 19 06 3e
       0.1745063 -0.18379577 -0.09182546 0.13095742
000140 10 d3 09 3e 86 c0 07 3e 85 ee 9e 3c 03 70 53 be
       0.1345942 0.13257036 0.019400844 -0.20648198
000150 b4 a4 1c be cd ef 27 3e 1e 7d 77 be 20 dd 59 3e
       -0.15297204 0.1640007 -0.24168822 0.21275759
000160 3f 3f 83 bc 97 67 9f 3d 78 ca ef bc 11 b6 1e bd
       -0.016021369 0.0778343 -0.02927135 -0.03874785
000170 a3 6f e7 bc ea 2d c5 3c 41 72 65 bd df 9c 20 3d
       -0.028251475 0.024069745 -0.056017164 0.039212104
000180 71 eb 69 3e 77 69 2c 3c 44 d7 47 be c1 fa cb bd
       0.2284372 0.010523192 -0.19515711 -0.09959937
000190 84 61 09 3e 4d b1 2e 3d cd 34 ae 3b 69 22 e5 bd
       0.13416106 0.042649556 0.005316353 -0.11188204
0001a0 64 7c 33 be 01 c4 1d 3e 57 74 3d be 39 71 8a bd
       -0.1752792 0.15406801 -0.18501411 -0.06759877
0001b0 47 8e e7 3d fb f6 39 3e 07 97 82 bd bd 45 3f be
       0.11306434 0.18160622 -0.063764624 -0.18678947
0001c0 49 d3 56 3d 93 ba 23 3d 3d 8c 32 bc a8 d2 3c be
       0.05244759 0.039972853 -0.010897693 -0.18439734
0001d0 98 0a 35 3e aa 03 80 3d aa 4f 8d 3d c3 e2 e9 3d
       0.17679822 0.06250699 0.0689996 0.114202045
0001e0 ea 74 51 3e e8 bd ac bd 8d 7f 14 3d 6c 9f 27 be
       0.20454755 -0.08434659 0.036254454 -0.16369408
0001f0 32 0e 3f be 9d 5b dd bd e6 3d 86 3a 14 0a 17 be
       -0.18657759 -0.108084895 0.0010241836 -0.14749938

base.mlp.fc.2.weight f4 [128]
000000 d7 05 81 3f 51 80 81 3f 88 66 80 3f 42 8d 90 3f
       1.0079907 1.0117284 1.003129 1.1293108
000010 dd a6 7f 3f a8 ee 88 3f ed a6 81 3f 04 57 86 3f
       0.9986399 1.0697832 1.0129067 1.0495305
000020 41 0e 83 3f f5 24 7a 3f f0 08 84 3f 9f 0b 7b 3f
       1.0238725 0.9771264 1.0315228 0.9806461
000030 55 fd 7f 3f b4 89 7c 3f b8 77 6a 3f ee 9c 6b 3f
       0.9999593 0.9864762 0.91588926 0.9203633
000040 95 c5 79 3f 84 8e 80 3f d6 c7 89 3f bf a5 84 3f
       0.9756711 1.0043492 1.076411 1.0363082
000050 9a b0 8c 3f 32 4a 85 3f 75 3d 78 3f cf fd 89 3f
       1.0991395 1.0413268 0.96968776 1.0780581
000060 c0 1f 68 3f 95 94 79 3f 1b 6d 6c 3f f0 83 72 3f
       0.90673447 0.97492343 0.9235398 0.9473257
000070 73 40 77 3f ca 68 82 3f 46 ad 86 3f c2 9c 65 3f
       0.96582717 1.0188229 1.0521629 0.8969232
000080 e7 55 69 3f d2 91 77 3f 26 17 6f 3f 27 da 7a 3f
       0.911467 0.9670688 0.93394697 0.97989124
000090 b8 72 71 3f 06 e0 83 3f 73 14 80 3f 3c 7f 7e 3f
       0.9431567 1.0302742 1.0006241 0.99412894
0000a0 96 79 79 3f dd 90 85 3f f2 dc 6e 3f 35 06 84 3f
       0.9745115 1.0434834 0.93305886 1.0314394
0000b0 75 61 75 3f eb 37 7b 3f c1 64 8a 3f 10 a3 7c 3f
       0.9585183 0.981322 1.0811998 0.98686314
0000c0 61 38 86 3f 5b 98 7e 3f 2e 5e 74 3f 1c a9 74 3f
       1.0485955 0.99451226 0.95456207 0.9557054
0000d0 71 2c 76 3f 15 08 80 3f c3 51 6e 3f d2 a4 7e 3f
       0.9616156 1.0002466 0.9309351 0.99470246
0000e0 47 5e 78 3f 2b ae 71 3f 5d 5b 82 3f 84 c3 84 3f
       0.97018856 0.94406384 1.0184132 1.0372167
0000f0 3a 23 80 3f 6e d6 78 3f 51 b6 83 3f 4e be 84 3f
       1.001075 0.97202194 1.0290014 1.0370576
000100 53 d4 70 3f c2 fd 80 3f 9f ec 70 3f 26 80 6a 3f
       0.9407398 1.0077441 0.94111055 0.9160179
000110 4e b8 85 3f a7 db 7b 3f 51 86 82 3f fc aa 7b 3f
       1.044687 0.9838204 1.019724 0.98307776
000120 78 10 89 3f cf cb 83 3f 6a 75 81 3f db 49 81 3f
       1.0708151 1.0296572 1.0113957 1.0100664
000130 06 e9 7b 3f 0a 62 80 3f 83 3f 70 3f f3 31 7d 3f
       0.9840244 1.0029919 0.9384691 0.9890434
000140 4b 1b 88 3f c4 1c 80 3f 23 be 81 3f cf 97 6c 3f
       1.0633329 1.0008779 1.013615 0.9241914
000150 a6 16 86 3f 61 b3 82 3f 3c b9 70 3f ce a1 82 3f
       1.0475662 1.0210992 0.94032645 1.0205629
000160 e7 1f 81 3f 60 6b 87 3f dc cf 80 3f 43 86 87 3f
       1.0087861 1.0579643 1.0063434 1.0587848
000170 cd ab 84 3f 6f 4f 72 3f 06 31 78 3f 46 05 7a 3f
       1.036493 0.94652456 0.96949804 0.97664297
000180 a1 95 89 3f 3e b6 81 3f 6a 39 88 3f 7f e3 80 3f
       1.0748788 1.0133741 1.0642521 1.0069426
000190 d7 80 84 3f 38 70 80 3f da 40 74 3f 0e 82 86 3f
       1.0351819 1.0034246 0.95411456 1.050844
0001a0 2a b6 75 3f 65 71 81 3f fb 6e 73 3f b8 d7 7d 3f
       0.95981085 1.011273 0.9509122 0.99157286
0001b0 96 f2 7d 3f 91 35 7a 3f a4 e1 7b 3f 1f cf 76 3f
       0.9919828 0.97737986 0.98391175 0.9640979
0001c0 ee 3a 81 3f 5b 46 86 3f 4e 66 65 3f 6a 32 80 3f
       1.0096109 1.0490221 0.8960923 1.0015385
0001d0 fe 9c 81 3f c5 01 87 3f 01 46 8a 3f 25 40 82 3f
       1.0126035 1.0547415 1.0802613 1.0175825
0001e0 fd 6a 6a 3f d7 ae 66 3f fb b4 7b 3f fc ae 6d 3f
       0.915695 0.90110534 0.9832303 0.9284513
0001f0 52 33 7e 3f 1b f0 82 3f 4f d3 7e 3f 1a fe 81 3f
       0.9929706 1.0229524 0.9954118 1.0155671

base.mlp.fc.2.bias f4 [128]
000000 5e 7d 93 bc cf 4e 3b 3d 30 cf bb bc a9 59 26 bc
       -0.018004116 0.045729455 -0.022925943 -0.010153213
000010 be ac 60 bc d9 7f 29 3b f5 c5 ae 3c d4 8f de bc
       -0.01371306 0.0025863557 0.021334628 -0.027168192
000020 fe 46 db 3b 91 66 46 3d 69 e4 87 3c b0 1a 19 3d
       0.0066918125 0.04843766 0.016588407 0.037378967
000030 68 8b 04 bd 68 3d 62 3d db 38 aa 3d e8 d7 9d 3d
       -0.03235951 0.055234343 0.083116256 0.077071965
000040 65 09 20 3d 07 d4 6c bb d9 c9 a4 3b 39 d2 ae bc
       0.03907146 -0.003613712 0.005028945 -0.021340476
000050 06 87 07 3b d4 6d 33 bd e1 b4 51 bd 23 fc 2b bc
       0.0020679845 -0.043805912 -0.05119789 -0.010497126
000060 f9 51 c1 3d 97 c2 48 3d bc d5 92 3d 64 60 59 3d
       0.09439463 0.0490137 0.07169673 0.05307044
000070 a9 1b 79 bd 57 71 e6 3b 53 f8 72 bc ba b9 d6 3d
       -0.060817394 0.007032554 -0.014829713 0.10484643
000080 f3 e6 b1 3d c6 e7 52 3d a3 3e 17 3d 88 3d 67 bd
       0.08686628 0.051490568 0.03692497 -0.056455165
000090 fa 33 33 3d 21 56 8f bb 53 2d c1 bc 2e 5f 0e bd
       0.04375074 -0.004374281 -0.023581183 -0.03475874
0000a0 ca f8 a6 3c d0 16 02 bc 6a dc 08 bd 32 a0 c1 3c
       0.020382304 -0.007940009 -0.03341333 0.023635957
0000b0 51 be 00 bd 4b 9d f6 bc e0 93 d9 bc 02 fc a8 bb
       -0.0314315 -0.0301043 -0.02655977 -0.005156995
0000c0 eb 4e 38 3d 75 a3 12 bc c5 19 66 3d 0c 22 65 bb
       0.044997137 -0.008950104 0.05617692 -0.003496292
0000d0 c3 0a 5b 3d b0 de 11 3d 93 a6 77 3d 00 64 0c 3d
       0.05347706 0.035612762 0.060461592 0.034275055
0000e0 12 3d 5f bb a8 37 98 3d 93 13 dc bc be df 81 3c
       -0.00340635 0.074324906 -0.026864802 0.015853759
0000f0 ad a6 38 bd e5 1f 0a bd d1 7f 2d bc 55 21 a7 bb
       -0.04508083 -0.033721823 -0.010589556 -0.005100409
000100 02 e8 76 3d d6 51 62 3b 17 95 a4 3d 65 d2 b6 3d
       0.060279854 0.0034533641 0.08036249 0.08926848
000110 09 6c 15 39 03 bf a5 b6 13 b3 1a bd b6 3e 3b 3d
       0.00014249994 -4.93962e-06 -0.037768435 0.045714103
000120 ad 6e 75 bc 56 2f cf 3c 0e 8b 6d 3c c8 f1 e7 3c
       -0.01498 0.025291126 0.014498485 0.028313532
000130 c3 8e db bc 0f 45 5c 3c 26 e9 67 3d 7d 59 d0 3c
       -0.026801473 0.013444199 0.056618832 0.025433296
000140 a5 3d a8 3b cf f9 f8 bc e9 ac 7c bb 4e 59 96 3d
       0.0051343017 -0.030392556 -0.003855521 0.07341252
000150 9c 82 96 3c 5b 46 9c 3c ab 32 36 bc 37 c8 08 3d
       0.018372826 0.019076517 -0.011120479 0.033394065
000160 1e 3f a9 3c 66 0e 8b 3c 48 cf 97 bc 3e 6e 94 bb
       0.02065998 0.01697464 -0.018531457 -0.0045297435
000170 8b 74 f3 bb 0c 84 1a bd 25 9d c4 bb bb 09 b1 bb
       -0.0074296645 -0.037723586 -0.0060001784 -0.0054027713
000180 a7 6f a9 3c 28 a8 1a b9 37 61 f0 3b 1b 12 06 3d
       0.020683123 -0.00014749228 0.0073358077 0.03273211
000190 ea 81 6c 3a 5e 8c 0a bd db 9c c8 bc b7 f7 74 3c
       0.0009022044 -0.03382527 -0.024488857 0.014951638
0001a0 34 07 41 3d 71 dc 13 bd 8e 1b a0 3d 37 43 39 3d
       0.04712601 -0.0360989 0.07817756 0.045230117
0001b0 6d 61 13 3d 4d 46 80 bb 6c bd 47 3d ac f6 82 3d
       0.035981584 -0.0039146305 0.04876463 0.06394705
0001c0 0c 89 b5 3c d8 d7 95 3b 13 a8 c9 3d 90 97 fa 3c
       0.022160076 0.0045728497 0.09846511 0.030589849
0001d0 e9 85 57 3c 07 7b 06 3d 40 f5 6a 3c 0d 74 97 3c
       0.013154485 0.03283217 0.014340699 0.018487955
0001e0 b9 d8 a3 3d 1e 48 d1 3d 2d 28 b0 3c 57 90 92 3d
       0.08000321 0.102188334 0.021503532 0.07156437
0001f0 0b 97 30 bc d3 6d 73 3c ff 7a 61 bc 9d 23 e5 bc
       -0.010778199 0.014857727 -0.013762235 -0.027971083

base.mlp.fc.3.weight f4 [128, 128]
000000 bf fc 52 3d 9c 10 3b 3d ed 90 94 bd 6f aa 40 bd
       0.05151057 0.045670137 -0.07254205 -0.04703754
000010 96 af 00 bd ad 83 68 3d 8b 9f ad 3d b4 bb 82 3c
       -0.03141745 0.0567662 0.08477696 0.015958644
000020 37 0f a9 3d a1 17 6d bd ff 0c c6 3d dd 9f 50 3d
       0.08254855 -0.057883862 0.096704476 0.050933708
000030 d6 2b a3 bc ee 97 bc bc 0a fb 5e bd dd 0d ef bc
       -0.019918364 -0.023021664 -0.05443863 -0.029181415
000040 6e a2 bc bd 29 56 38 3d 5b 21 ec bb fb d4 dd bd
       -0.092106685 0.045004044 -0.0072061247 -0.108316384
000050 d3 ce d6 3d 0f 91 09 be 12 4e 2b 3d f5 c7 80 bd
       0.10488667 -0.13434242 0.0418225 -0.06288139
000060 a3 34 70 bb a1 03 d5 3d fa 86 8c bd 09 11 88 bd
       -0.0036652468 0.10401083 -0.06861682 -0.06643874
000070 5b 09 2e bd a5 81 80 bd 7a dc 12 bc ab 3d 80 3d
       -0.04248939 -0.06274728 -0.0089636985 0.06261762
000080 ff e2 76 bd e3 22 cf bb c0 11 82 bd 26 58 27 bd
       -0.060275074 -0.0063212975 -0.06351042 -0.04085555
000090 ed 8f b2 bc 66 10 bf bd 82 b6 b5 bd 6d 85 87 3c
       -0.021797145 -0.093293 -0.08872701 0.016543115
0000a0 de 00 15 3d 77 5a b1 3c 88 9f 7a 3d 0f a8 c2 3d
       0.03637778 0.021649582 0.061187297 0.09504711
0000b0 05 8d 2b bd 56 48 85 3d 46 08 9d bd 01 d8 95 bd
       -0.041882534 0.065079376 -0.07667594 -0.0731659
0000c0 b7 43 ac bd 24 82 02 be 38 38 34 bd 47 01 c3 bd
       -0.08411353 -0.12744957 -0.043998927 -0.09521728
0000d0 8b 4e ae 3d 14 8d 8e 3d 20 7d 17 3d 7e 20 46 3d
       0.08511075 0.06960502 0.036984563 0.04837083
0000e0 55 51 e3 3c c8 cb 31 bd 3b 6c 33 be f0 d5 02 3c
       0.027748743 -0.04340723 -0.17521755 0.007985577
0000f0 4a ad 89 3d 73 2d 6d bd b9 d0 1e 3d f3 5f 35 3d
       0.067225054 -0.057904672 0.038773272 0.044280957
000100 34 f6 7a 3d 20 1c 47 bd fb 6a 02 bd 63 4d b3 3c
       0.061269954 -0.048610806 -0.031840306 0.021887487
000110 82 15 fb 3d e4 4b bc 3d 76 ec b3 bd 8a 13 67 bd
       0.12259962 0.091941625 -0.08785336 -0.05641512
000120 f6 15 90 3d f6 9a 1c bd 24 ed 62 bd 0e 4d a1 bd
       0.07035439 -0.03823372 -0.055401936 -0.07876025
000130 5c 17 19 3d 2f 61 72 3c 07 89 9f 3d 87 6b 53 bb
       0.037375793 0.014793678 0.07789808 -0.0032260136
000140 8e d9 5e bd 8b 7c e0 3c df 9c b8 bc b1 74 b0 bd
       -0.054406695 0.027403137 -0.02253574 -0.08616007
000150 18 38 c4 39 5f d6 93 bd 3f ab 40 3d 34 9a 1a 3e
       0.00037425826 -0.072186224 0.047038313 0.15097886
000160 e9 ee 91 3c 33 c2 3b bd a5 4f 9a bc df 30 a6 3c
       0.017814117 -0.0458395 -0.018836806 0.020286975
000170 13 ea 96 3d 92 99 10 be db b0 9c 3d 81 f1 ea bb
       0.07368865 -0.14121082 0.0765092 -0.007169903
000180 e7 64 26 3d 85 f9 ce bc 1e a6 af 3d 37 11 cd bd
       0.04062357 -0.025265465 0.08576606 -0.10013049
000190 83 20 8d bd 4c ef 98 bc da 26 16 3d b3 9b 01 bd
       -0.06890967 -0.018668793 0.036658145 -0.031642627
0001a0 5e 00 92 bd 50 12 81 bc 31 68 c2 3d bc 84 a9 bd
       -0.07128976 -0.015755802 0.09492529 -0.0827727
0001b0 07 3c be 3d 5c 53 53 3d d8 fa 25 3d 8a 15 49 bc
       0.09288793 0.05159317 0.040522426 -0.012273202
0001c0 f0 a8 74 3d ec 2c 8c 3d 04 71 0d bd c6 a3 ec bd
       0.059731424 0.06844506 -0.03453161 -0.11554675
0001d0 c3 2d c1 bc f5 bb bc bc eb 59 ee 3c b7 37 62 3d
       -0.023581391 -0.023038844 0.02909561 0.055228915
0001e0 f7 42 4d 3b 03 6a ba 3d 52 0f 13 3d b1 ce e5 3c
       0.0031320432 0.091022514 0.035903282 0.02805266
0001f0 87 df 50 bd a1 bb 0d bd 0c fb 97 3d 2c ef 0c 3d
       -0.050994422 -0.034602765 0.0742093 0.03440778
000200 0b 95 af ba 4f 9e f2 bc 62 61 ae bc 61 e5 f4 3b
       -0.0013395859 -0.029616503 -0.02128667 0.007473633
000210 66 65 68 bc 00 64 1e bc 89 22 58 bd 4a 43 31 be
       -0.0141843315 -0.009667397 -0.05276731 -0.17310825
000220 4b 97 5d 3d 68 bf c0 3c 38 73 96 bd c1 1a 5f bd
       0.054099362 0.02352877 -0.07346195 -0.054468874
000230 39 2e fb bd 84 74 fd bc 89 5c fc 3c 4f 1e 72 3d
       -0.12264676 -0.030939348 0.030805843 0.059110936
000240 88 68 4f bd c7 61 e2 bd 53 5a bf bd dd 12 89 bd
       -0.0506368 -0.11053806 -0.093434 -0.06693051
000250 6b 47 99 3c 43 60 b4 bd 0f 80 a0 bd a3 80 04 bd
       0.018710813 -0.08807423 -0.07836925 -0.03234924
000260 4c 3e e8 bc dc f7 c5 3c 6c f9 0c 3d b0 9f b4 3c
       -0.028350018 0.02416604 0.034417555 0.022048801
000270 db b8 11 3d 98 ae e5 bd e9 7e 07 3d ee 3a 48 3c
       0.035576683 -0.11214942 0.033080015 0.012221081
000280 1b 03 57 3d 3c c9 4c bd d0 40 c4 bc dc a7 8b 3d
       0.052493196 -0.0499966 -0.023956686 0.06819126
000290 55 b6 12 bd 72 2f cc bc bd 50 0c bd 1f 5b fe bd
       -0.035818417 -0.024924967 -0.034256686 -0.12419724
0002a0 e0 5e 76 bd da a4 8c bc 47 39 2a bd 27 a4 08 3d
       -0.060149074 -0.017168451 -0.04155853 0.033359673
0002b0 c0 96 22 bc 6d e8 27 be 68 20 36 bd d9 5f 73 bd
       -0.009923637 -0.16397257 -0.0444645 -0.05941758
0002c0 48 4c 60 3d f0 bc 9a 3d 9d 80 1d bd 49 3a 82 bd
       0.054760247 0.07555568 -0.038452733 -0.06358773
0002d0 47 dd e5 3d c7 85 2b 3d 26 23 70 3d c3 b9 9c bc
       0.11223846 0.041875627 0.05862727 -0.019131547
0002e0 e1 26 c2 3a 0e 7e af bc c7 ad 9b 3d 93 bb 18 3e
       0.0014812612 -0.021422412 0.07601505 0.14915304
0002f0 3b 6e 8f 3c fe 58 eb 3b ba 5f c9 bd e7 9b 37 bd
       0.017508617 0.0071822396 -0.098327115 -0.044826414
000300 f4 a3 64 bc dd 75 e4 3c 96 eb 27 bd 19 73 45 bd
       -0.013955105 0.027888233 -0.040996157 -0.04820547
000310 68 7a eb bd 0c 81 b4 bc b7 b4 74 bd 38 5f 3b 3c
       -0.114979565 -0.02203419 -0.059742656 0.011436276
000320 b6 e8 f0 bc 3f 12 9e bd 3c 02 6b bd 17 ce 64 bd
       -0.02940784 -0.07718324 -0.057375178 -0.055860605
000330 4e d7 9d bd 9d de 67 3d 4b ba 9a 3d 7a e7 52 3d
       -0.07707082 0.056608785 0.07555064 0.051490285
000340 8c 8e 0b 3d 6d 79 07 bd 88 9e ae ba c3 a0 25 3d
       0.03407149 -0.033074785 -0.0013322392 0.040436517
000350 a5 d2 0d 3d 3d 93 55 ba 98 43 15 bd fc 6a cd 3d
       0.034624714 -0.00081472454 -0.036441416 0.10030171
000360 70 04 31 3d a9 ec f1 bc fa 5c 3c 3d e3 d3 c8 bd
       0.043217123 -0.029531794 0.045987107 -0.09806039
000370 fb b0 81 bc fc 24 c5 bd 31 7e 90 bb a7 3e 83 bd
       -0.015831461 -0.09626195 -0.0044095744 -0.06408434
000380 7d 34 e4 bd c5 83 ef 3d c1 45 44 3d 9c e3 6a 3b
       -0.11142824 0.11695055 0.047918085 0.0035841232
000390 d6 b0 62 bc 62 9a 25 bd 38 25 66 3a 33 64 10 3c
       -0.013836106 -0.040430434 0.000877935 0.008812952
0003a0 77 74 e0 3d 30 62 48 3b 8f 6e ae bc 89 a0 8b 3d
       0.10959714 0.0030576102 -0.021292953 0.06817729
0003b0 fc f4 81 3b 5e 9e 54 bd 83 c5 c2 3d 7f 24 15 3e
       0.003965972 -0.051908843 0.095103286 0.14564703
0003c0 06 ce 30 3d 99 51 b2 3d 17 72 d6 3d 07 9d 9d bd
       0.04316523 0.0870697 0.1047098 -0.07695966
0003d0 ad 12 96 3d bd 1d 21 3e d1 98 86 bd 9d 5b 8b 3d
       0.07327781 0.15734 -0.06572116 0.06804583
0003e0 cf e5 88 3c 9b c3 91 3d 95 ca 9f 3d 9b 95 2c 3d
       0.016711144 0.07117387 0.07802311 0.042134862
0003f0 d9 3a b7 bc 2e ea ce 3c 2c 46 41 3d c7 13 ce bc
       -0.022366928 0.02525815 0.04718606 -0.025155915

base.mlp.fc.3.bias f4 [128]
000000 11 e2 98 bc df 05 ee 3a b8 10 98 bd 72 f1 6b 3c
       -0.018662484 0.0018159709 -0.07425064 0.014400827
000010 d0 92 32 bd 97 28 91 bd ac d3 10 3d f7 8f 74 3c
       -0.043597043 -0.0708782 0.035358116 0.014926902
000020 2b 99 75 39 e2 65 bd bd ad a8 11 3d a7 a6 9f bd
       0.0002342208 -0.09247948 0.035561252 -0.07795458
000030 4d 56 61 bd 80 30 37 3c 6a 59 68 3d 18 21 ad bd
       -0.055013943 0.011180997 0.056725897 -0.08453578
000040 6e a6 74 bd db b8 0e 3d cf 2e 57 bd 2d e7 94 bd
       -0.059729032 0.03484426 -0.052534875 -0.07270656
000050 19 b0 1a bd 10 59 47 3c ba e9 29 bd 8c e1 bc 3c
       -0.037765596 0.01216723 -0.041482665 0.023056768
000060 df ed 56 3d e4 08 73 bd 61 15 ae bb aa 21 a1 bd
       0.052472945 -0.05933465 -0.005312607 -0.07867749
000070 60 b4 29 3d 7a f2 43 bd b9 96 74 3c 7a 52 7e 3d
       0.041431785 -0.047838666 0.014928513 0.062090375
000080 0f 7b 04 bd b1 58 73 bd 5e 87 0e bd 60 63 80 3b
       -0.03234392 -0.059410755 -0.034797065 0.0039180964
000090 3f fe a1 3d 21 38 a2 bd 7d b4 32 3d 62 fd 04 3c
       0.07909822 -0.07920862 0.04362916 0.008117052
0000a0 27 3c 59 3d 1e 01 9b bd 58 1b da 3c f8 ff 80 bd
       0.05303588 -0.075685725 0.026624367 -0.06298822
0000b0 9f 13 41 bd 52 0c 20 3d 4c ae a3 bd 18 e4 98 bd
       -0.047137853 0.03907425 -0.07992229 -0.074653804
0000c0 9f 7f 30 3d b4 3d 4e bd d2 f7 8d bc 6c 2f 83 3d
       0.04309046 -0.050351813 -0.017330084 0.064055294
0000d0 6c be 25 3d 67 3f 85 3d ea 44 81 3d 2b d6 17 bd
       0.040464804 0.06506234 0.063119724 -0.03706948
0000e0 e8 91 9e bc 65 29 27 bc ad 88 16 bd e1 39 8f bc
       -0.019356683 -0.01020274 -0.036751438 -0.017483654
0000f0 8a e8 97 3d de bb c8 bd b6 da a5 bd 1a 09 05 3d
       0.074174 -0.09801458 -0.080983564 0.032479383
000100 40 33 29 3d 6e 16 4d 3d ec 14 1a bd 5c 09 e9 3b
       0.04130864 0.05007022 -0.03761761 0.0071117114
000110 91 b6 80 3d 31 8f 81 bd 6b f4 47 bc bf b3 f8 3a
       0.06284822 -0.0632614 -0.01220427 0.0018974467
000120 ea 0e 0e 3d 9f e0 08 bd 34 e1 ba bd e0 0f 0f 3c
       0.034682192 -0.03341734 -0.09124985 0.008731812
000130 2c dd da bd 4f 91 77 3d b9 1c 48 3d c7 91 86 3d
       -0.106867164 0.06044131 0.048855517 0.065707736
000140 43 65 6f bd dd 5a 6d 3d 56 64 5d bd c5 5a 49 3d
       -0.05844618 0.057947982 -0.054050766 0.04915883
000150 03 88 94 bd 89 b0 1e 3c 21 76 94 bd 7e 72 c3 bc
       -0.07252505 0.009685644 -0.07249094 -0.023858305
000160 ac 98 83 3d b6 dd bb bd 2a ab 87 3c ec 7c 47 bc
       0.06425604 -0.091731474 0.01656111 -0.01217578
000170 72 eb a1 bd 56 b5 fb ba 73 53 14 3d d9 1c ac bd
       -0.07906236 -0.0019203823 0.036212396 -0.0840394
000180 83 12 b5 3c 4e 1c b0 bd 3a 0e ef ba 2f 6a 64 bd
       0.022103554 -0.08599149 -0.0018238493 -0.055765327
000190 42 24 b1 bd 71 d1 0d 3d 0e 6d d5 37 64 7f 70 bd
       -0.08649494 0.034623567 2.5442361e-05 -0.05871524
0001a0 da 92 b9 bd ba f7 27 bd d1 73 5e bd 93 31 09 3d
       -0.09061213 -0.041007735 -0.05430967 0.033494543
0001b0 0b 82 4f bd c2 ab 6e bc 7e 52 8a bc a6 52 9a 3c
       -0.050661128 -0.014567317 -0.016885038 0.018838238
0001c0 05 4a 97 bd a4 77 2f bd 5a 23 95 3d 2f df f1 bd
       -0.07387165 -0.042838708 0.072821334 -0.11810147
0001d0 e2 55 9d bd 24 8c 97 bd 53 3f b7 3c 25 3c ad 3d
       -0.076823965 -0.073997766 0.022369063 0.08458737
0001e0 e6 71 8c 3d 67 42 43 3d fc d2 a4 3d a6 54 8f bd
       0.06857662 0.047670748 0.080480546 -0.06998567
0001f0 11 76 14 3d a6 f1 69 bd 08 2a 82 bd da cb 9e bd
       0.03624541 -0.05711522 -0.06355673 -0.07753725

base.mlp.fc.5.weight f4 [128]
000000 12 8b 87 3f ab 5e 7a 3f 3e e6 7d 3f d4 4f 7a 3f
       1.0589316 0.978007 0.99179447 0.9777806
000010 df c0 8d 3f dc e7 84 3f 63 61 83 3f 5a ce 7b 3f
       1.1074485 1.0383258 1.0264095 0.9836174
000020 82 64 86 3f 06 9e 86 3f 54 bb 82 3f 58 e8 80 3f
       1.0499423 1.0516975 1.0213418 1.0070906
000030 2c cd 84 3f 0e b5 86 3f 7e 8f 81 3f 88 bd 85 3f
       1.0375113 1.0524004 1.0121915 1.0448465
000040 a6 4c 85 3f 87 47 70 3f 26 0c 8a 3f 39 c6 87 3f
       1.0414016 0.9385914 1.0784957 1.0607368
000050 f6 dc 70 3f 36 02 8d 3f 93 71 85 3f 6d 2f 88 3f
       0.9408716 1.10163 1.0425285 1.0639473
000060 2b d5 78 3f 34 d5 87 3f 5a e2 82 3f aa 3d 80 3f
       0.9720027 1.061194 1.0225327 1.0018818
000070 94 cc 82 3f 8e 17 80 3f d9 24 87 3f 41 3a 81 3f
       1.0218682 1.0007188 1.055812 1.0095903
000080 1a 71 86 3f 29 58 6c 3f 63 32 7e 3f 10 c8 84 3f
       1.0503266 0.9232202 0.99295634 1.0373554
000090 6f 64 81 3f 1e 64 7d 3f 89 6b 89 3f 63 ce 88 3f
       1.0108775 0.9898089 1.0735942 1.0687984
0000a0 c9 81 87 3f 06 83 7c 3f 69 9f 8a 3f e2 68 84 3f
       1.0586482 0.98637426 1.0829898 1.0344508
0000b0 b9 f0 86 3f a0 ae 89 3f 26 7e 85 3f 5f 73 83 3f
       1.0542213 1.0756416 1.0429122 1.0269583
0000c0 02 3c 76 3f a4 38 83 3f 0b a1 86 3f f4 77 88 3f
       0.96185315 1.025166 1.0517896 1.0661607
0000d0 65 59 7b 3f c3 00 88 3f b4 de 8a 3f 4c 49 7d 3f
       0.9818328 1.0625232 1.0849214 0.9893997
0000e0 81 b2 85 3f ce 33 83 3f d9 20 89 3f d3 8f 87 3f
       1.04451 1.0250185 1.0713149 1.0590767
0000f0 a5 dc 85 3f e1 ad 81 3f 80 e8 82 3f cd 9a 85 3f
       1.045796 1.0131189 1.0227203 1.0437866
000100 50 4d 82 3f bc a1 86 3f 74 ac 8a 3f 31 23 84 3f
       1.0179844 1.0518107 1.0833879 1.032324
000110 19 10 83 3f 6d a4 80 3f 13 99 86 3f 9c 33 86 3f
       1.0239288 1.0050179 1.0515465 1.04845
000120 56 90 77 3f 6b 14 82 3f ac 59 6c 3f 57 39 8b 3f
       0.96704614 1.0162481 0.9232433 1.0876874
000130 8c b1 87 3f 52 09 89 3f 1b 18 8a 3f 6d 23 87 3f
       1.0601058 1.0705969 1.0788606 1.0557686
000140 18 ce 81 3f 90 bc 85 3f a8 c3 89 3f e0 92 8a 3f
       1.014102 1.044817 1.0762835 1.0826073
000150 62 a9 7b 3f c0 35 85 3f c6 01 85 3f 7e d0 81 3f
       0.9830533 1.0407028 1.0391166 1.0141752
000160 03 67 81 3f 14 6b 7f 3f 01 6d 89 3f e7 0f 7e 3f
       1.0109562 0.99772763 1.073639 0.99243015
000170 39 4e 83 3f 47 bd 8b 3f dd 79 82 3f 45 5c 81 3f
       1.0258247 1.0917138 1.019344 1.0106283
000180 c5 73 84 3f 58 e3 83 3f 2d 48 83 3f 7a 85 84 3f
       1.034783 1.0303755 1.0256401 1.0353234
000190 8e 75 86 3f 6b 75 8b 3f 15 b2 88 3f e5 1e 85 3f
       1.0504625 1.0895208 1.0679346 1.0400053
0001a0 4b 6f 82 3f cd 34 81 3f 82 48 82 3f 3b f9 80 3f
       1.0190214 1.0094239 1.0178378 1.0076059
0001b0 c7 21 8d 3f f2 3b 81 3f fb ab 84 3f 64 96 88 3f
       1.1025933 1.0096419 1.0364984 1.0670896
0001c0 c2 5f 83 3f 5f 7c 87 3f 22 57 84 3f 59 9a 77 3f
       1.0263598 1.058483 1.0339091 0.9671989
0001d0 75 22 80 3f 8c 6f 83 3f 36 c2 86 3f 46 02 86 3f
       1.0010515 1.0268416 1.0528018 1.0469444
0001e0 ae 10 86 3f a7 51 84 3f 36 12 7b 3f 82 8e 77 3f
       1.047384 1.0337418 0.9807466 0.96701825
0001f0 bd c9 7b 3f 09 3d 83 3f a6 5f 7e 3f cd dc 7b 3f
       0.98354703 1.0253001 0.993647 0.9838379

base.mlp.fc.5.bias f4 [128]
000000 60 be e0 bb b1 e4 ce 3c 20 05 82 3b 05 88 af 3c
       -0.006858632 0.025255533 0.003967896 0.021427164
000010 41 a1 e9 3a e0 01 c7 bc 65 6e 1c bb 67 3a 7d 3c
       0.0017824547 -0.024292886 -0.0023869511 0.015455819
000020 ab 21 42 3c 79 bb b1 3c 9c e8 8b bc bc 71 f4 bb
       0.011848847 0.02169584 -0.01707869 -0.0074598473
000030 6d 2d 8d bc 95 d4 84 3b 7c a8 c9 bc 2d 9d f1 bb
       -0.017233575 0.004053662 -0.024616472 -0.007373473
000040 62 e7 15 3c 0b 17 9f 3c e5 e5 19 bc f8 dc a0 bc
       0.009149404 0.019420167 -0.00939319 -0.019636616
000050 82 c9 b1 3c 58 2b 40 3b a6 b6 0d bb 05 c4 68 3c
       0.021702532 0.002932271 -0.002162376 0.014206891
000060 2a a9 7e 3c c5 8c 08 3c b5 3a 96 3b bf 14 f4 3c
       0.015543262 0.008334343 0.004584635 0.029795049
000070 71 f5 eb bb b8 51 00 3d 42 e5 31 3b 5e b3 02 3c
       -0.0072008898 0.031327933 0.0027144705 0.007977335
000080 21 df 07 bc 38 1b 72 3d 45 0a 36 bc 37 52 d0 3b
       -0.008292944 0.05910799 -0.011110847 0.006357457
000090 88 26 83 3c 83 cc 0c 3d ff e0 4b 3c b9 32 8f ba
       0.016009584 0.034374725 0.01244378 -0.0010925151
0000a0 4e a3 78 bc d3 c0 fd 3c fe 94 b2 3b ad d6 82 3c
       -0.015175654 0.030975735 0.00544989 0.015971506
0000b0 7c b1 8b bb 6a 53 d7 bc a2 78 8b bc 09 93 f6 bc
       -0.004263101 -0.026284892 -0.017025296 -0.030099409
0000c0 40 91 f0 3c 4a 34 b4 b9 80 f5 b8 bb 1e c8 4f 3c
       0.029366136 -0.00034371234 -0.0056445003 0.012681989
0000d0 50 8e 6b bc 1d b9 77 bb 34 42 a7 3c 7b e9 53 3c
       -0.014377192 -0.0037799545 0.02041731 0.012934084
0000e0 65 3c ed 3b 6a 17 00 bc 4d 1d 35 3c e6 4d ec b8
       0.0072398656 -0.007818082 0.011054349 -0.00011267867
0000f0 0f 8f c5 3b 78 0d 3e 3d cd 1a 84 bc 16 6b a4 3b
       0.006029017 0.046399564 -0.01612606 0.0050176485
000100 8f 34 5f bb 71 6d 67 bc 59 fa d7 3c 70 d0 c8 bb
       -0.0034058427 -0.014125214 0.026364492 -0.0061283633
000110 18 a5 bc 3c ea c3 11 3b 6b 15 b8 ba 07 39 8c 3c
       0.023027942 0.0022242018 -0.0014044469 0.017117037
000120 36 a4 4c 3c 79 af 64 3a 86 a7 6c 3d d3 43 5f 3b
       0.012490323 0.0008723657 0.05777695 0.0034067526
000130 39 5f 3b bc 18 71 a8 bc 99 ec 10 bc d2 f2 f1 3b
       -0.011436277 -0.02056174 -0.008845472 0.0073836828
000140 a2 fe bf 3c 1c 67 5f 3b de b2 4f bb 54 73 87 bb
       0.023436848 0.0034088558 -0.0031692307 -0.004133621
000150 6c c9 04 bc 7a bf 43 3c b8 c3 a3 3c 1c 10 c2 b9
       -0.008104663 0.011947507 0.019990787 -0.00037014566
000160 d8 d5 50 bc be b8 22 3a 27 7c 66 bc bc a5 09 3b
       -0.012746297 0.00062073383 -0.014067686 0.0021003326
000170 56 4d b7 3a 54 bc 64 3c e2 cc 47 bb e4 12 97 bb
       0.001398484 0.013960917 -0.003048711 -0.0046104062
000180 06 0d 66 3c 4c 67 bf bc a6 5b 8e bc c2 9a 06 bb
       0.014041191 -0.023364685 -0.017377686 -0.002053902
000190 7a 8a 5c bc d6 37 f9 ba 05 05 8d 3c 5a 7a 67 bb
       -0.01346075 -0.0019013833 0.017214308 -0.003532073
0001a0 ec ad 86 bc 11 57 56 3c f2 6e 5d 3c 1c f3 90 ba
       -0.016440354 0.013082282 0.013515221 -0.001105878
0001b0 77 1d 20 3c 60 78 64 bb dd b5 da 3c d1 57 aa 3c
       0.00977265 -0.0034861788 0.026698047 0.020793827
0001c0 c6 cf 70 3b b0 13 be bb 7a df ad bc 40 5e ee 3b
       0.0036744936 -0.005800687 -0.021224726 0.007274419
0001d0 7e 2a d6 3b 16 83 ce 3b ef 40 48 bc be 2b 25 bc
       0.006535827 0.0063022478 -0.012222513 -0.01008123
0001e0 57 9c 26 3d 65 e7 fc 3b 85 f7 1d 3c 99 ac 3e 3d
       0.04067644 0.007718014 0.009641533 0.04655132
0001f0 74 4c 94 3c ef e8 59 3c 76 f3 80 3a 85 bf 4a 3d
       0.018102862 0.013300165 0.0009838182 0.049499054

rnn.gru.weight_ih_l0 f4 [384, 128]
000000 4f 5f fa 3d 61 be 21 3d 91 18 da 3d 6e ea 1a bd
       0.1222521 0.0394882 0.10649217 -0.037821226
000010 b2 43 db bd c4 2a 01 3e 89 0d 76 3d 1b b0 b7 bc
       -0.10706271 0.1261397 0.060071502 -0.02242284
000020 4c a5 5a bd 22 ce a2 bc 9f b9 a1 3c e8 f3 ed bd
       -0.053380296 -0.019873682 0.019741831 -0.11618787
000030 71 4e 20 3e 2d f4 a3 bd f4 86 80 3d 1d a5 60 3c
       0.15654923 -0.08005557 0.0627574 0.013711241
000040 ef 6f de bd 39 44 9b bd f6 0f 0c bc ac 95 33 3c
       -0.108611934 -0.07581372 -0.008548727 0.0109609775
000050 8f a5 1e be db c0 86 bd 10 50 13 3e 50 62 fe bc
       -0.15492843 -0.06579753 0.1438601 -0.031052738
000060 7e b3 7b 3c 41 b7 20 bd 74 cc 67 3c 13 96 1a bd
       0.0153626185 -0.039237265 0.0141478665 -0.03774078
000070 ea 10 33 bd 64 29 58 3d f2 4f 83 bd cb e4 e1 bd
       -0.043717302 0.05277385 -0.06411733 -0.11029967
000080 b7 1a 56 3d b0 f2 be bd 00 d2 b0 bc 70 e0 c1 3c
       0.05227157 -0.09323633 -0.02158451 0.02366659
000090 80 96 f7 3d 3e 6a 47 bd 8b 43 37 bd 06 d8 9d 3a
       0.120892525 -0.048685305 -0.04474215 0.0012042529
0000a0 13 96 1a 3d d3 90 c4 3c d4 0f 05 bc 4e 94 34 3d
       0.03774078 0.023994839 -0.0081214495 0.044086747
0000b0 43 b8 86 bd 9c 7c 24 bd b9 be ae 3d 8f f3 5f 3d
       -0.06578114 -0.0401579 0.08532471 0.054675635
0000c0 ff b0 71 3c 89 e2 f0 3c 49 bf ab 3d 10 c6 ad bd
       0.014751672 0.029404895 0.08386094 -0.08485043
0000d0 c0 51 9d 3c ad d9 d2 bc 96 d0 01 3c 50 69 cd 3c
       0.01920402 -0.025738562 0.007923266 0.025074631
0000e0 6f 59 95 bb c7 7c b2 bc 60 3c 35 3d ff 7c 2c 3d
       -0.0045577805 -0.021788014 0.04424703 0.042111393
0000f0 a9 9c a8 3d 7a ff b3 bc c7 1f e5 3d da 44 c0 bd
       0.082330056 -0.021972407 0.11187702 -0.093881324
000100 54 0c 20 3e 8a 90 18 3d 00 56 8d bd 38 e0 a7 3d
       0.15629703 0.03724722 -0.06901169 0.08197063
000110 8b bc e0 bd c0 59 38 bd 76 63 be bd 44 91 02 be
       -0.10973462 -0.045007467 -0.092963144 -0.12750727
000120 67 29 0d bd be 62 86 3d 0a f9 4a bc f6 b1 de bd
       -0.034463312 0.06561802 -0.012388477 -0.10873787
000130 7e 3e 30 bc 1e 0a d4 bc 3e bc 90 3d 8b 7a 2c bd
       -0.010757087 -0.02588373 0.07067154 -0.042109054
000140 c5 6e e7 3d 28 5b 63 bd a4 ec 29 3d f7 c5 34 3d
       0.113004245 -0.055506855 0.041485444 0.044134106
000150 c0 86 81 3c fa 6f ed bd 3d 95 c6 3d 4a de d7 3d
       0.015811324 -0.115936235 0.09696434 0.10540445
000160 7f 6d 1e 3c d3 1e 6b bc 9b df f5 3d 94 95 a5 3d
       0.009669661 -0.014350611 0.1200554 0.080851704
000170 36 6b 43 bd 8f 84 ee b8 08 c6 74 bd 94 6f ad 3d
       -0.047709666 -0.00011373415 -0.05975917 0.084685475
000180 56 f3 5d 3c f0 c7 82 3d ea a2 98 bd 43 3e 87 bd
       0.013546785 0.06385791 -0.074529484 -0.06603672
000190 62 07 37 3d a2 b3 cf 3c d5 40 21 bd e2 02 42 3d
       0.044684775 0.02535421 -0.03936847 0.04736603
0001a0 7c ee 9a 3d f1 7e 27 be b8 35 a3 bc 7e c3 30 3c
       0.075650185 -0.16357018 -0.019923076 0.0107887965
0001b0 5a 35 0b 3e 3a b2 81 3d bb 73 01 be d9 d0 af 3d
       0.13594571 0.06332822 -0.12641804 0.085847564
0001c0 c0 8b f1 bb 8e c1 ad 3d 0f 51 e6 bd 87 9b 89 bb
       -0.007371396 0.08484183 -0.112459294 -0.0041994485
0001d0 87 60 34 3d 43 19 9d 3d 6a d9 0f bd 21 75 3f 3d
       0.04403737 0.07670834 -0.03511945 0.046742562
0001e0 5c 52 d7 3d 54 da 84 3c d8 7a 04 be 2b 50 21 be
       0.10513756 0.016217388 -0.12937486 -0.15753238
0001f0 6c a6 93 bd b9 90 80 3c b1 f5 81 3c 4d 73 0e 3d
       -0.07209477 0.01569401 0.015864225 0.03477793
000200 67 24 1b be 48 00 4c 39 57 9c 4d bd e0 d3 6d bd
       -0.15150605 0.00019455061 -0.050197925 -0.058063388
000210 3f 60 4f 3d 9d 44 dd bd 44 13 8c 3d 69 6a d9 3d
       0.050628897 -0.108041026 0.06839612 0.10615999
000220 dd 94 06 bc 6b 8b c2 bc a7 18 f9 3c 7d 97 e9 bd
       -0.008214203 -0.02374812 0.030407263 -0.11405847
000230 70 13 4f bd 2e ca 8b ba 20 33 0b bc 58 19 97 bc
       -0.050555646 -0.0010665113 -0.008496076 -0.018444702
000240 6c 63 c1 bc b9 90 a7 3d 86 36 8a bc fd 9f 76 bd
       -0.023606978 0.081819005 -0.016871702 -0.06021117
000250 fb 97 74 3d 7b c3 df bd 54 74 36 bc 52 fd 57 bd
       0.059715252 -0.10925957 -0.011136133 -0.05273182
000260 58 08 ce 3d ae d0 50 3d 2c 98 43 bd 74 aa 1b 3c
       0.10060185 0.050980262 -0.047752544 0.009501088
000270 cf 9e 9f bd 95 9c 8d bd 3e 2f 4d 3c 99 01 3a 3d
       -0.07793962 -0.06914631 0.01252347 0.04541168
000280 c8 bd 53 3d 29 74 06 3d 83 16 b8 3d 2b af 7f 3d
       0.05169466 0.032825623 0.08988669 0.062422913
000290 e9 89 c1 3d 4d 4c 00 bd 3b 9c 5c 3d d3 c2 93 3d
       0.094501324 -0.031322766 0.05385993 0.07214894
0002a0 78 01 04 3c 6b 57 4b 3d 76 9b c6 3d 2f 0f f7 3b
       0.008056991 0.049643915 0.096976206 0.007539652
0002b0 51 9f 81 bc 48 25 39 bd e3 65 33 bd 96 e9 04 be
       -0.015823038 -0.04520157 -0.04379834 -0.12979731
0002c0 7a d3 fe bc 9f 8a 10 3c 00 bf 85 bd e1 16 71 bd
       -0.0311067 0.008822112 -0.06530571 -0.05885971
0002d0 c9 0e ec bd 7b fd e6 bc f4 2a ca 3d 32 22 8a bd
       -0.115262575 -0.02819704 0.09871474 -0.067448035
0002e0 b5 69 98 3d 3d b8 8b bd c5 05 81 bc 9d 67 94 bd
       0.07442037 -0.0682225 -0.015749821 -0.07246325
0002f0 ce 7c 90 bd 82 06 08 3d 49 70 21 bd 4a c7 3c bd
       -0.070550546 0.03320933 -0.039413724 -0.046088494
000300 fe 0c 21 be e9 8c ce bc ee 5f c6 3d 9a b9 25 bd
       -0.15727612 -0.025213676 0.09686266 -0.040460207
000310 48 5f 22 3d 5a 42 c0 bd 74 01 68 bd 55 93 ba bc
       0.03964165 -0.093876556 -0.05664201 -0.022775332
000320 dc af 83 3d e3 91 06 3c 30 41 44 3c 15 52 24 bd
       0.06430027 0.008213493 0.011978433 -0.040117342
000330 55 6c cb bd 72 7d 96 3d 4f 30 95 bd 41 34 b7 3b
       -0.09932772 0.073481455 -0.07284605 0.005590946
000340 77 3d 06 3d 5d 24 46 3d 32 14 0e 3d 0b 38 4f 3d
       0.03277346 0.048374522 0.03468723 0.050590556
000350 33 2f 18 3d 2b 69 20 3c a8 eb 07 bc 0e 66 08 bd
       0.037154388 0.009790699 -0.008295931 -0.033300452
000360 c9 e2 e8 bc 3d 0e 88 3d 1e df ac bd 9a 2f 77 3d
       -0.028428452 0.06643341 -0.08440994 0.06034813
000370 3d 40 71 ba 6d 5c 0a bd 1c 3f 0b 3d 91 78 6b bb
       -0.00092029927 -0.03377955 0.033995733 -0.0035930017
000380 3c 02 66 3d 16 ca 86 bb 0a e3 93 bc b7 84 4b bc
       0.056154475 -0.004113446 -0.018052597 -0.012421778
000390 72 28 62 bc 48 57 4f bd c3 bd 2c bd ac 39 a5 bd
       -0.013803588 -0.050620347 -0.04217316 -0.08067641
0003a0 03 ed cb 3d 41 46 3c 3c 36 59 02 bd 1e 2b e6 3c
       0.09957316 0.011491359 -0.03182336 0.028096732
0003b0 35 aa 68 bd d7 bd 71 3d 1b a2 99 3d 0f 17 f2 bc
       -0.056802947 0.059018936 0.07501622 -0.02955201
0003c0 f9 82 fc bd b8 73 04 bd 0b df c4 3d ef 4e 99 ba
       -0.123296686 -0.03233692 0.096128546 -0.0011696498
0003d0 a6 16 37 bd 88 72 9f bd c6 a6 0a be de a5 e4 3c
       -0.044699334 -0.07785517 -0.13540182 0.027911123
0003e0 24 8a a5 bd a1 af 7c 3d 6e 64 ec 3d cb 0e a9 3d
       -0.08082989 0.06169093 0.11542593 0.08254775
0003f0 3e 45 22 bd c4 32 7d bd 6e e5 91 3d aa e7 26 bd
       -0.039616816 -0.061815992 0.07123838 -0.040748276

rnn.gru.weight_hh_l0 f4 [384, 128]
000000 b4 23 62 bc 5c e6 a4 bd 76 b8 f3 bd 97 2b fa bc
       -0.013802458 -0.0805175 -0.119004175 -0.030538363
000010 24 c7 00 3e bf b1 56 3d 43 45 5e bd 80 60 b0 bc
       0.12575966 0.052415606 -0.054265272 -0.02153039
000020 62 fa 7e bd a7 ef 05 be b0 7f 95 3d ef c0 90 bd
       -0.062250502 -0.13079701 0.07299745 -0.07068049
000030 a6 3a fb 3d 07 9e 12 3e d3 79 9f bd a6 51 7a 3d
       0.12267046 0.14318095 -0.07786908 0.061113022
000040 1d 4e 5a 3d ee 86 1b 3e 2f 66 b3 3d d4 f0 c9 3d
       0.05329715 0.1518819 0.08759724 0.098603874
000050 79 45 1c be 36 5d 70 bb a8 95 9f bc 78 5a 26 bd
       -0.15260877 -0.0036676652 -0.019480541 -0.04061362
000060 71 55 86 3d 22 4b ca 3b 31 b3 d2 bd cc 95 68 bd
       0.065592654 0.0061735073 -0.10288084 -0.056783482
000070 59 87 5d 3d 83 4f 90 3d 7c a8 aa 3a 7f 9e 27 3c
       0.054084156 0.07046416 0.0013020183 0.0102306595
000080 63 15 26 bd 2d e7 d1 3d 75 8d 6b bd ae 42 18 be
       -0.04054774 0.102491714 -0.05750795 -0.14869186
000090 0e da 91 3d 9f 7b f3 3b 77 b4 be 3b de 0a 98 bd
       0.07121669 0.0074305083 0.005819853 -0.07423948
0000a0 cc d7 71 bd 1e 01 e3 3c 7f 49 5f 3d ab 86 02 3d
       -0.05904369 0.027710494 0.05451345 0.03186671
0000b0 e4 56 ed bc cf 51 92 bd e5 81 2d 3b 1b 69 c1 3d
       -0.028972097 -0.0714451 0.0026475128 0.094438754
0000c0 ac 97 be bd 2e 4d 15 3e b5 f2 22 be 8b 6e e9 bc
       -0.09306273 0.14580223 -0.15912898 -0.028495094
0000d0 9e 81 87 3c 20 0d 9c 3c d5 a8 ed 3d 1d f8 20 3e
       0.016541298 0.019049227 0.11604468 0.15719648
0000e0 15 7a 90 bd d2 c4 73 3d 24 a7 f9 3c 95 45 88 3d
       -0.07054535 0.059513874 0.030475207 0.06653897
0000f0 a6 b0 29 3b dc f8 1e 3d 34 65 c1 bd a1 e6 75 bd
       0.0025892644 0.03881155 -0.09443131 -0.060034398
000100 4f 37 e9 bd db a3 17 3a 87 3f c4 bd 94 b7 d5 bc
       -0.113875024 0.0005784609 -0.095824294 -0.026088513
000110 da 8e 44 3e f0 21 66 bd c1 9c f3 bd 44 51 bc 3d
       0.19195119 -0.05618471 -0.11895133 0.09195188
000120 2d 12 38 3c 03 48 86 3b e6 91 76 3d 5e 36 f3 3d
       0.011234802 0.00409794 0.060197733 0.11875604
000130 ab ab 01 3e 54 04 15 3e 0f c2 76 3d e3 63 15 3c
       0.12663142 0.14552432 0.060243662 0.009118053
000140 23 bf 7d 3d 7f ae 94 bd e7 c1 27 3d c6 f5 21 3b
       0.06194986 -0.07259845 0.040956404 0.0024713143
000150 1f 2d bb bd c0 cd 97 3d ae 20 56 3d 36 ad 61 3d
       -0.091394655 0.074122906 0.05227726 0.055096827
000160 af 2d 4e bc 59 9d 21 bd ef e7 cb 3c fd 6a 4e bd
       -0.012584134 -0.0394567 0.024890868 -0.050395
000170 73 c2 8a ba 7c 07 1a bd 07 64 62 bd 62 37 32 bc
       -0.0010586515 -0.037604794 -0.055271175 -0.010877462
000180 92 db da bd d8 77 cc bd aa 4a ac bb 40 18 a9 bd
       -0.10686411 -0.09983796 -0.005257924 -0.082565784
000190 fc a4 d8 bc f4 b9 d8 bb ed 50 1b 3d 17 e3 ae 3d
       -0.026445858 -0.006613964 0.037918974 0.08539408
0001a0 cb d5 e5 3d 2e 85 ad bd 43 ad 67 3d f5 8f 8e 3d
       0.112224184 -0.08472668 0.05656172 0.069610514
0001b0 25 b3 09 bd 91 07 23 3c be 0b 25 bd 7a e6 06 3e
       -0.03361811 0.009950534 -0.0402944 0.13173857
0001c0 48 fa dc bd 39 98 86 ba 84 41 32 3e 37 33 a9 bc
       -0.10789925 -0.0010268755 0.17407805 -0.020654304
0001d0 e5 de ef 3c 0a 5f c1 3d 99 15 b2 bb 49 c9 40 3c
       0.02928109 0.094419554 -0.0054347035 0.01176674
0001e0 5d fb 16 bd 68 cf cb 3c cc eb ef bc bb 0b 85 3d
       -0.036860812 0.024879172 -0.029287241 0.06496378
0001f0 e3 d9 92 3d 2a 78 2f bd df ea 71 bd 09 52 0c bd
       0.07170465 -0.042839207 -0.05906188 -0.034257922
000200 cc 86 9f 3d 01 78 d7 bc b1 88 af bd ab 33 1b bc
       0.07789382 -0.02630234 -0.08570994 -0.009472768
000210 b7 b0 e6 3d 26 02 58 bc 5a d4 37 3b 25 98 3a 3d
       0.112641744 -0.013184106 0.0028050155 0.045555253
000220 5f 9e 7f 3d 89 77 57 bd 9d ec 31 3d 38 1e e6 bc
       0.062406894 -0.052604232 0.043438543 -0.028090581
000230 93 fd a0 bc a3 70 24 3c 68 f6 cb 3d c2 e2 4e 3d
       -0.019652164 0.01003662 0.09959108 0.05050922
000240 e9 b6 ba bd a3 1b 03 be da 05 b3 3d 3e 35 be 3c
       -0.091169186 -0.12803511 0.087413505 0.023218747
000250 35 ef 2d bd da ea 0f bc 3b 18 6e 3d ef 49 d3 bd
       -0.042464454 -0.00878402 0.058128577 -0.10316836
000260 7e ef 49 3d 23 03 46 3d 32 6f 20 bd 30 db 87 bd
       0.049300663 0.048342835 -0.039168544 -0.066336036
000270 97 0e 9f 3d f5 1d 93 bd c8 2e a8 bc 85 61 3e 3d
       0.07766455 -0.07183448 -0.02053012 0.04647972
000280 a8 d7 4f 3b b0 fe 90 bc a1 64 00 bd a4 46 19 bb
       0.0031714235 -0.01769957 -0.031345967 -0.0023388052
000290 73 30 08 bd d2 c4 7b 3d 5a 60 70 3d 94 c4 0c 3e
       -0.03324933 0.061467 0.058685638 0.13746864
0002a0 0c 93 9d 3c 56 d1 9f bc b1 9d 8a 3d de 40 a6 bd
       0.019235156 -0.019508999 0.067683585 -0.08117841
0002b0 12 e7 d3 3c ff 24 a7 3c 00 8e c8 3c f3 9a 93 3d
       0.025867019 0.020403383 0.024481773 0.072072886
0002c0 a8 c6 8f 3c d6 36 6a 3c 75 ec bd bd 54 cb cb 3c
       0.017550781 0.0142953005 -0.09273616 0.024877228
0002d0 22 ae b7 bd fa 61 3e bd 76 be 54 bc b9 3e 48 3d
       -0.0896876 -0.046480156 -0.012984863 0.048887942
0002e0 d5 d5 fa bd bb 45 0e bd c1 d9 2a 3d c7 1f af bd
       -0.122478165 -0.03473447 0.041711573 -0.08550983
0002f0 1b 88 ed 3d f4 a4 74 ba 84 12 86 3d c5 05 4d bd
       0.11598226 -0.0009332441 0.065465 -0.05005433
000300 10 ad c9 3d 01 f6 1b 3c bb 54 00 3d b2 75 0c 3e
       0.09847462 0.009519101 0.031330805 0.13716772
000310 a8 f6 27 bd 52 ce 9d 3c 57 39 fd bd b2 10 a9 bc
       -0.041006714 0.01926342 -0.12364452 -0.020637844
000320 c6 a8 a0 3d 0f b7 e0 3d 25 e7 7e bd 34 0f 88 bc
       0.07844691 0.10972416 -0.062232155 -0.016608812
000330 ec bc 41 be b0 09 11 3d 9a 50 9a bc 0b 90 db bd
       -0.18919724 0.03540963 -0.018837262 -0.107208334
000340 b9 64 5b 3b 71 d9 6a 3d 54 ed a7 bd 55 0e 0c bd
       0.0033476783 0.057336275 -0.081995636 -0.034193356
000350 54 ff 46 3d d0 23 79 3c 89 be d2 bd 20 40 bb bd
       0.048583344 0.015206292 -0.10290248 -0.0914309
000360 28 65 5f bd 6a 2f 3a bd e0 b2 28 3d 7c ee 73 3d
       -0.05453983 -0.045455374 0.041186213 0.05955361
000370 30 6d 9a 3d 60 85 52 3d 9c 61 22 3d 83 0b 3c 3d
       0.07540357 0.051396728 0.03964387 0.045909416
000380 cb 6f ab 3d 51 ac 43 bd 0e 9a e2 3c d9 61 ae bc
       0.08370932 -0.047771756 0.02766135 -0.021286892
000390 84 57 89 3d cb 86 05 3d 9b 60 d7 bd 9d 50 bb 3d
       0.067061454 0.03259925 -0.10516473 0.09146235
0003a0 3a e6 6e 3c f3 ed 99 3d 62 68 49 be 9d 5d 19 bd
       0.0145812575 0.07516088 -0.19668725 -0.037442792
0003b0 69 df d2 3d f7 19 70 bc 7b e0 91 3d 77 aa 99 3d
       0.10296518 -0.014654628 0.071228944 0.07503217
0003c0 99 45 9d 3d 4a 7e 09 3c 4a 8e 50 bc a0 5a c1 3a
       0.0767929 0.008391926 -0.012729237 0.001475174
0003d0 10 53 81 3d bc 37 8b bd a0 94 0a bd 72 f8 1e bd
       0.06314671 -0.0679774 -0.033833146 -0.038811155
0003e0 c1 7b d4 bc b4 8a 95 3c 57 10 81 3c 17 8a 15 bd
       -0.025937917 0.018254615 0.015754862 -0.036508646
0003f0 6a 98 4a 3d f3 fe 1f 3d 11 63 22 3e cf d8 57 bd
       0.04946176 0.039061498 0.15858103 -0.052697
